Code/CNN/best_student.pth (torch, 271291 bytes, 7 tensors)

conv1.weight f4 [6, 1, 5, 5]
00000000: 26f8 03bb 8153 05be b4e9 823d fdaf 7b3d
00000010: 4826 c6bd 579c 063c 14b8 af3b 2692 4a3d
00000020: 5b19 9ebe e687 273e 4c94 b73d 72e5 6b3d
00000030: f4c1 783e 5628 363e d799 913c 8bb7 023d
00000040: c93d f63d 7f8c 38bd 072b d9bc d358 5a3e
00000050: 4853 eb3a b4d9 03be 3d7d 6ebe 5a2c a9bc
00000060: f5a0 24be a1fb cabd d591 c13d b69c 75bd
00000070: 9a3a 913d 9170 1c3d 7225 5e3d d6c0 0cbc
00000080: 1d7c d43d 8f01 fc3d 1931 ccbc e1ec 47bb
00000090: fa67 debd bb45 22bf 0f60 0bbe 1e1b 643c
000000a0: f549 733e 39da 0c3e 8658 07bf 1d17 5ebc
000000b0: 351a 9a3d 4f50 fa3d 2a0a b43e dbb6 f23c
000000c0: 26c7 193e 65bb c5bc d5f1 cfbe 5a72 d1bd
000000d0: 30a2 503d c235 e6bc 4438 663d d90c cdbe
000000e0: 88fb 783e 27d7 a03e f8f6 413e 7b3c a53d
000000f0: 784f 2bbe 278f ae3e 1b93 5c3d 1225 9fbe
00000100: 3ef3 f3bd e7bc 0f3e 3ead 263d 5db4 c3bb
00000110: 6b5f 99bd d78e d93d 1489 e43d 8b19 0abe
00000120: b6d6 00bc 15b6 9c3d 454a 6bbd c598 3c3d
00000130: a788 413c b8bb 7c3e 95d2 50be 6737 58bd
00000140: 11ed 0d3d e5cc ad3e 2000 333e f509 42be
00000150: 346b f8bd 0e28 693d c763 1b3e c2f2 f83d
00000160: 9103 b4be 8ffe 51be d502 d83c e877 e83c
00000170: eaa2 fc3c c2ef 8cbd 90a3 c6bd 0523 d43d
00000180: e05d 90bd f4c3 01be 6d42 4c3d 58f0 923c
00000190: 34f3 773d bade f1bd 3b77 2e3e a87a b43d
000001a0: f03b e63d 54cc 1abe 1c26 3c3e b63b 353e
000001b0: bab5 8e3e ba8c 283e 51e1 b83d 31e1 b0bd
000001c0: 907e 89bc c61b 46be 58c5 8bbd 8aeb a53d
000001d0: 1668 8f3c 2ea0 96be 01ad fdbe 13c1 d1bc
000001e0: 2f4c 6f3d d12f 1bbd db9d fabb 51e7 8fbd
000001f0: d35b a6bd 031e 3c3e 8849 8dbe edc4 b93d
00000200: 2886 9a3e 550c 97bd 03bc a3bd 01e9 dfbe
00000210: 19bf 173e 8dc8 e93e fd22 553d a5fd 3b3e
00000220: 4a1e d4be 7004 a7bc f90d 94bd 342e 9b3d
00000230: 6b84 12be 84b6 ed3d 6c93 25be 0ab8 36bd
00000240: 68ea 163d 0135 d13b ab6c 8fbb 95fe b9bc
00000250: 1a0f ce3d fd65 27bd
-0.0020136922 -0.13020135 0.063922316 0.061447132 -0.0967527 0.008215985 0.00536252 0.049455784
-0.3087872 0.16360435 0.08963832 0.057591863 0.24292737 0.17788824 0.017773552 0.03191332
0.12023503 -0.045055863 -0.026509775 0.21322946 0.0017953897 -0.12876016 -0.23289962 -0.020651031
-0.16077025 -0.09911276 0.094516434 -0.059963904 0.070912555 0.03819329 0.05423493 -0.008590898
0.10375235 0.12304985 -0.024925755 -0.003050618 -0.10859676 -0.6338765 -0.13610862 0.013922481
0.23758681 0.1375512 -0.5286945 -0.013555315 0.0752453 0.12222349 0.35164005 0.029628208
0.15017375 -0.024137208 -0.4061419 -0.10226889 0.050935924 -0.028101806 0.056206003 -0.40048864
0.24314702 0.31414148 0.18941867 0.08068176 -0.16729534 0.34093592 0.05385123 -0.3108297
-0.11911629 0.14036904 0.04069256 -0.0059724287 -0.07488903 0.10622948 0.11158958 -0.13486306
-0.007863691 0.07651917 -0.057443876 0.04604413 0.011812366 0.24680984 -0.2039283 -0.05278721
0.034649912 0.33945385 0.17480516 -0.18949111 -0.121298224 0.056922965 0.15174781 0.121556774
-0.3515897 -0.20507263 0.026368538 0.028377488 0.030839402 -0.06881668 -0.09699166 0.10358242
-0.07049155 -0.12672406 0.049868036 0.01793687 0.06053467 -0.1181006 0.1703767 0.08812457
0.11241901 -0.15117007 0.18373913 0.17698559 0.2787302 0.16459933 0.09027351 -0.08636702
-0.016783983 -0.19346532 -0.0682475 0.08101566 0.017505687 -0.29419082 -0.49546054 -0.02560476
0.058422264 -0.0378874 -0.0076482124 -0.07026542 -0.08122983 0.18370824 -0.27595162 0.09070764
0.30180478 -0.07375399 -0.07994845 -0.43732455 0.14818992 0.4566082 0.05203532 0.18358476
-0.4142936 -0.020387858 -0.072292276 0.07577172 -0.14308326 0.11607078 -0.16169518 -0.044609107
0.03684464 0.0063844924 -0.004376968 -0.022704402 0.10061474 -0.040868748

conv2.weight f4 [16, 6, 5, 5]
00000000: 3d4e 79ba a415 b1bd 2e1d d6bd aec6 bcbd
00000010: f5a7 9c3c 1842 84bd e7d2 77be b42e 12be
00000020: 502f 51bd 8e40 b5bd 8994 90bd b4ee 7fbd
00000030: 8cc7 2dbd 4413 84bd 6973 dabc f254 a43d
00000040: 0c9e d4bb bb4c 883d 7c5c e43d d4a0 46bd
00000050: ef99 0e3e 3d0e 513e 3240 883d fb68 393e
00000060: c650 053e 79fd a43e dab3 a9bc 82d3 e2be
00000070: 9740 c3be 1041 cd3d 2b87 de3d 0f1d 12bd
00000080: 10e9 6bbe 1071 cf3d 900e 6c3d 4e85 ab3c
00000090: 36bc 6dbd 4f3b 56bd 122d 1e3e efe0 2b3d
000000a0: 6f5d 29bd 00d7 bbbc 97b3 543d 9037 0b3e
000000b0: 8224 82bd b386 b33d c566 493e 113a e03d
000000c0: d37e 323d 91a3 5e3d fbf1 f43d 2dcb 2b3c
000000d0: 150b 9ebd f64d d8bb d1bc 293d 87d9 093d
000000e0: 88be 8fbe ea52 f7be 4530 d4bd 1e44 cf3d
000000f0: d41f 683d 906f 563d 37c1 a4bd 57d3 8ebd
00000100: 2ec2 a7ba 9db7 a73c 0480 e93d acef f43d
00000110: 31f0 00bd 382f efbd d9b5 fa3d 63ab ac3d
00000120: 9fdc 603e 4055 4a3d cd64 753d a05c b23c
00000130: f981 3ebe 3785 51be 88fc 9ebc 1fab 49bd
00000140: 9ff1 253d d70d 1dbe 9279 e9be 582d c4be
00000150: a826 c8bd 701b bebc cee2 3f3d 99d1 f4bd
00000160: cad3 2fbe 4358 3cbd ef60 0a3e dbdf fa3d
00000170: 9de0 083e bdf4 c23d eef8 023e 4efb 16bd
00000180: 7795 cc3d 5f89 2c3e 522d ee3d 37ce ed3d
00000190: 2a08 373d bb24 9bbd 71f9 1d3e 977b 86bc
000001a0: 8812 43bc 3bd5 80bc fbdd 48bf 80a7 e0be
000001b0: be2c ffbc 5152 8dbd bd3b 42be 6ad7 07bf
000001c0: 5533 b2be ae29 0fbe a028 8dbd 8f7b 283d
000001d0: 837a 2ebe 49fa fabd faea 70bd 7a4c 1d3d
000001e0: 47d1 1c3e f403 ae3d aa06 823d 565c b5bb
000001f0: d90d 1cba 2e90 d43b 591f a23d e7bd 8abd
00000200: a0d3 973c 47f5 c93c da42 20be c2c7 45bf
00000210: 6ffb cdbe dbd9 0abe b1f0 1ebd 5044 2abe
00000220: 9350 01bf 1026 48be b58d f53c e70e 2e3c
00000230: e6df 043e 5e9d 1f3d e003 953e e3ab 343e
00000240: 90c8 f53d 40b4 3f3e 1f81 0a3e 9e98 4c3e
00000250: 9478 0a3d 3033 ad3c 592d 863c 0965 c53d
00000260: 3bce d83d 17f1 d93c 9432 953d 41e6 b43d
00000270: ebaa ea3d cd3d 223e 22d0 283e a00e b3bd
00000280: 7b28 4c3d e4cd 06bd c49c 5f3c aa85 97bd
00000290: 8fd8 da3c 51d9 9bbd 29da 0a3d 9b33 05be
000002a0: 2880 aa3b e080 eabd f6f6 48bd 3620 95bc
000002b0: 0c7f bdbb e135 39bd 2d89 0ebe 59c9 cdbc
000002c0: 7213 ddbd 987a 753e 70d4 0b3f 0a66 43be
000002d0: 951e 55be 1147 5cbe c7d0 a73e 6fcb f9bb
000002e0: 0037 0abf a0d8 2c3d a402 5f3e 60e5 bebd
000002f0: c080 ecbe 1bca 26be 9438 c23c d64d 03bd
00000300: c96b cbbd b658 97bd 75b1 a33d be42 9ebc
00000310: ad7e 57bd 0341 bfbd f510 1b3d 76a7 fabc
00000320: 9a9a a53d 6013 da3d e32f 08bd de0d 42be
00000330: b8a3 bebd de5d 803d 6497 813d 6192 883e
00000340: ad99 813e 43bc a2be eca5 903c 6e5e 323d
00000350: 69cd 773e 2fc7 84bd 2337 efbd 0cff a1bd
00000360: 9d57 8bbe 846a bebe ed69 95be 8014 023e
00000370: 9a77 e9bc 3aef 30bc f983 293c 76a2 da3d
00000380: a006 93bc aa94 98bd 009b 10be 312d 4bbe
00000390: 5f84 d9bd b5ac 2b3d 8dd9 5c3a 2f6b b13b
000003a0: b361 863e 6567 a33e 0651 423d 9996 c0bd
000003b0: a914 0e3e adde 743e 9211 8c3d 8e91 e03c
000003c0: c78d 49bd fd96 28bd 9ef9 1abe 03a6 b0be
000003d0: b542 5dbd 45f2 aabd 183d 613b 8731 9bbd
000003e0: 2b02 a4bd 92fd bcbd 1f4c b83d b506 c63d
000003f0: 5ac9 a9bc 33da afbd c6c7 4f3d 6fa9 d3bc
-0.00095102546 -0.08646706 -0.10454784 -0.09217583 0.019123057 -0.06457919 -0.24201547 -0.14275628
-0.05107051 -0.088502035 -0.07059581 -0.062483504 -0.04242663 -0.06448987 -0.02666636 0.080240145
-0.006488567 0.0665526 0.111504525 -0.04849322 0.13925909 0.20415588 0.06652869 0.18106453
0.13019094 0.32224634 -0.020715643 -0.44301993 -0.38135216 0.10022175 0.10865625 -0.035672244
-0.23038125 0.10128987 0.057631075 0.020937588 -0.05804082 -0.052302655 0.1544688 0.04196256
-0.04134887 -0.022929668 0.051929083 0.13595414 -0.063546196 0.08765926 0.1966811 0.10948575
0.04357798 0.054355208 0.119602166 0.010485453 -0.077169575 -0.0066010905 0.041439835 0.033654716
-0.2807505 -0.48305446 -0.10360769 0.10120414 0.05667098 0.052352488 -0.08044665 -0.069739036
-0.0012798959 0.020473296 0.1140137 0.11959776 -0.031479064 -0.11678928 0.12241716 0.08431127
0.2195916 0.049397707 0.059910584 0.021772683 -0.18604268 -0.20460974 -0.019407526 -0.04923546
0.04051363 -0.1533731 -0.45600563 -0.38315845 -0.09772998 -0.023206443 0.046847157 -0.1195404
-0.17170635 -0.04598261 0.1351354 0.12249728 0.13366933 0.095193364 0.12790272 -0.036860757
0.09989446 0.16849278 0.11629738 0.11611598 0.04468552 -0.07575365 0.15427186 -0.016416354
-0.011906274 -0.015726676 -0.78463715 -0.43877792 -0.031149264 -0.06900466 -0.18968101 -0.5306307
-0.34804788 -0.13980743 -0.06892514 0.04113346 -0.17038922 -0.12254769 -0.05881784 0.03840301
0.15314208 0.08496848 0.06348927 -0.005534689 -0.0005952991 0.006486914 0.07916135 -0.06774502
0.018533528 0.02465309 -0.15650502 -0.7725793 -0.4023089 -0.13559668 -0.03880376 -0.16627622
-0.5051357 -0.1954577 0.029974798 0.01062367 0.12976035 0.038968436 0.2910452 0.17643695
0.12001145 0.18721104 0.13525818 0.19980094 0.0338064 0.021142572 0.016379045 0.096384116
0.1058621 0.026604218 0.07285038 0.0883298 0.11458381 0.15843888 0.16485646 -0.08743024
0.049843293 -0.032911196 0.013648216 -0.07398541 0.026714591 -0.07609809 0.03389946 -0.13007967
0.0052032657 -0.11450362 -0.049063645 -0.018203836 -0.0057829674 -0.0452174 -0.13919516 -0.025120424
-0.107947245 0.23972547 0.5462103 -0.19081894 -0.20812447 -0.21511485 0.32776472 -0.007623128
-0.53990173 0.042198777 0.21778351 -0.093210936 -0.46191978 -0.16288035 0.02370862 -0.032056652
-0.09932668 -0.07389967 0.079928316 -0.019318935 -0.05261104 -0.09338572 0.03785797 -0.03059743
0.080861285 0.10648227 -0.033248793 -0.18950602 -0.093085706 0.06267904 0.063277036 0.26674178
0.25312558 -0.31784257 0.017657243 0.043547086 0.24199452 -0.06483304 -0.11680438 -0.079099745
-0.2721528 -0.3719064 -0.29182377 0.12703133 -0.028499413 -0.010799224 0.010346406 0.10675518
-0.017947495 -0.074502304 -0.14121628 -0.19841458 -0.10620951 0.041912753 0.00084247516 0.0054143886
0.26246414 0.3191482 0.04744055 -0.09403724 0.13875069 0.23913069 0.06839289 0.027413156
-0.049207475 -0.04115962 -0.15134284 -0.34501657 -0.054018695 -0.083469905 0.003436869 -0.07577806
-0.08008226 -0.09228052 0.08998894 0.09669248 -0.020725895 -0.0858654 0.05072763 -0.025837628

conv3.weight f4 [32, 16, 3, 3]
00000000: a97a c23e f4d0 8e3e 2678 be3d 97a7 a03d
00000010: 7e6c 0f3d c782 4c3d e839 893d 7080 783e
00000020: f895 1a3e faee 163e 4c95 123e 7d57 1c3e
00000030: 1a96 b73e dd7e 883e a887 913e 1987 373e
00000040: efc8 26bd 0ca0 2e3e 412f 00bd e433 20be
00000050: ca04 d2bd 6afc d2bc 9c51 81be c37a c0bd
00000060: f474 943d 8522 3b3d 142c df3d c166 94be
00000070: cee4 b3be 0c7d fbbd 5198 edbd 555b febd
00000080: a61c 243d 9a9a 8f3b ed78 be3d ac60 b4bc
00000090: f563 453e d575 efba 1c39 e03d 9c85 353d
000000a0: 98ce 863c 8d18 2cbc f5fd c4bd fe21 e5bd
000000b0: edbb 2ebe 7821 503e a08f 88be 720d 01be
000000c0: b051 a7be 2cad 83be 8539 98be 52fa 10bd
000000d0: 5287 7f3e 767c 3f3e 8533 06be 8a91 5dbd
000000e0: d68d 64ba 8295 86bd aaab 303c 9eaf 27bd
000000f0: ba04 0abe f28a c7bd 8295 33be 151a 47be
00000100: 98df 3dbe 7f18 8cbe c884 17be 3ce3 0ebf
00000110: 2d82 b4be a0fe 37be 9c6a ffbd 12a2 ebbb
00000120: d691 0a3d 2502 b5bd 2f5f d0bd 426e 9c3d
00000130: 9ba6 3ebd 7944 413d bdec 66bd c0ac afbd
00000140: 0ead 4ebc b025 37be 21d4 c6be 0dc7 88be
00000150: b5c6 1cbe 964c d8be cf20 87be 5f0b 2e3e
00000160: c739 d63d 29c2 03be d883 bdbc 4cde 51bd
00000170: d0ec 80bd 7d23 fdbd 7966 85be d070 0dbe
00000180: fb01 05be ced4 bdbd be77 bebc 65db 8f3e
00000190: ea25 1e3e 37dc 123e 4e0f 643e eedd c73e
000001a0: 1605 393e 963c f23d 1971 d13d 70ac a03d
000001b0: 1f49 94bd ead4 afbb c695 8dbe a278 f13b
000001c0: 6cfe 383d 8529 dbbd 227a a6be 9cc0 a5bd
000001d0: 26b5 b93c 3ebd 0d3d f71f 0abe f296 9bbd
000001e0: a434 8fbe d92f b0be 3b32 8abe 4c7c 2dbe
000001f0: 25ec 3abd 2785 6e3d 4411 463e 8f11 b9bc
00000200: 27fd 0e3e 9457 12be ceed c13e 2023 eb3d
00000210: 982e a43e 66d5 403d a0aa ef3d 9738 e53d
00000220: 2ee1 14bb 871b 893d 79f1 cf3d 3218 38be
00000230: b0af 7dbc 492d 62be d5fd edbe 5130 32bc
00000240: aa72 3f3d 86b2 1fbd 6304 8cbd cc4e c8bd
00000250: 7ec3 373e eb8d 16ba 62ed 033c 9642 583e
00000260: 641c 47bc 1fc8 8c3d 0c9d b2bc 1bf7 2bbc
00000270: a7e8 5ebd 9bbb b2bd eadd febc 0f10 c4bd
00000280: 3a74 e63d fded 1cbe ef82 de3d 9ad3 91bd
00000290: 1cf2 f8bd 0f22 183e 7ada 283d 480b e4bd
000002a0: 1a1b 04be 422e c53d 0b4e 153e 2af4 05be
000002b0: 7e79 9dbe 4afa 15be 774f cdbd ab59 143e
000002c0: dcb0 46bd 0ec9 9c3d f9c1 733e 1a5a a53d
000002d0: 4751 90bc d539 663d d0d0 0a3d 79a7 013e
000002e0: 5aca 0dbe da52 9fbd 56e4 c63d a90f 05bd
000002f0: 4486 b0bd aa26 c9be 9907 54bf a8f8 c1be
00000300: e782 9a3d 7e48 fd3d 12cc 423e 584f 2d3e
00000310: eebe ad3e 5779 943e eb4a 173e a719 b13d
00000320: 692a 383e 2f2c c0bd 7481 5fbd c16d 86bc
00000330: f9eb 34be 0d11 93bd 528a cdbd 7a6b c6bd
00000340: be12 b7be 6389 a6bd c40b 5c3d 95f5 11bf
00000350: 39c6 d7be 318d 013d f9e2 c03e c6b0 8a3e
00000360: 26a8 91bb f35a 6bbc 46a7 0f3d 48ec 8e3d
00000370: 556d 4e3d 94d5 fdbc 69f2 3e3d 611c 2bbd
00000380: 6d71 093c 5e8d 0b3c 0ff4 a3be 853d dabc
00000390: 1284 123e dd45 2f3e 21cc b1bd c81a 3b3e
000003a0: 96bb dd3e 5cbe babc 6502 fabd 42e1 5bbe
000003b0: 49fd a1bc 2106 9cbd 40d2 bcbd c826 ddbc
000003c0: 3186 3fbd 8748 623d 48e0 9cbc f54b b13d
000003d0: 56b7 f63d 6cc5 b63c b78f 13be d66f ca3c
000003e0: ff2b 78bc 7ddd 08be da75 393d 66e6 1bbe
000003f0: e0a9 ef3c 4e8a 083e 2be9 32be 6ac5 87bd
0.37984207 0.27893794 0.0930026 0.07844465 0.035015576 0.049929406 0.06700498 0.24267745
0.15096271 0.147396 0.14314765 0.15267749 0.35856706 0.2665929 0.2842381 0.1792263
-0.04071897 0.1705324 -0.031295065 -0.15644795 -0.1025482 -0.025755126 -0.25257576 -0.09398415
0.072488695 0.045687217 0.10897079 -0.28984645 -0.35135502 -0.1227971 -0.11601318 -0.12419764
0.040066384 0.0043824436 0.093004085 -0.022018753 0.19276412 -0.001826937 0.10948393 0.044316873
0.016455933 -0.0105039 -0.09618751 -0.11188124 -0.17063875 0.20325267 -0.26672077 -0.12602785
-0.3267951 -0.25718057 -0.29731384 -0.035394974 0.24953964 0.18699822 -0.1310559 -0.054093875
-0.0008718645 -0.06571485 0.010783115 -0.040938966 -0.13478366 -0.097432986 -0.17537501 -0.19443543
-0.18542325 -0.2736244 -0.14796746 -0.5581548 -0.35255566 -0.17968225 -0.12471506 -0.007190951
0.033830486 -0.088383 -0.10174405 0.076382175 -0.046545606 0.04718444 -0.056378115 -0.08577871
-0.012614502 -0.1788547 -0.38833717 -0.26714364 -0.15310176 -0.4224593 -0.26392218 0.16996525
0.10460239 -0.12867035 -0.023134157 -0.05123739 -0.062951684 -0.123602845 -0.26054743 -0.13812566
-0.12989037 -0.09269105 -0.023250457 0.28097072 0.1544415 0.14341818 0.22271463 0.39036506
0.18068346 0.11827962 0.1022665 0.0784539 -0.07240509 -0.0053659575 -0.2765333 0.007369117
0.04516451 -0.107012786 -0.32515055 -0.08093378 0.022669386 0.034604304 -0.13488756 -0.0759715
-0.2796985 -0.34411505 -0.26991448 -0.16941947 -0.04563536 0.058232453 0.19342524 -0.02259138
0.13963757 -0.14291221 0.37876743 0.11481309 0.32066798 0.047078513 0.11702466 0.11192434
-0.0022717225 0.066947035 0.10153479 -0.1797798 -0.015483782 -0.22087587 -0.4648272 -0.010875777
0.04674021 -0.038988613 -0.06836774 -0.09780654 0.17945668 -0.00057431933 0.008052202 0.2111915
-0.012152765 0.068741076 -0.021803401 -0.010495926 -0.054421093 -0.08727189 -0.031111676 -0.095733754
0.11252637 -0.1532516 0.10864817 -0.07120438 -0.12155554 0.14856742 0.04122398 -0.11134964
-0.12900963 0.096279636 0.14580552 -0.13081422 -0.30756754 -0.14646259 -0.10024922 0.1448733
-0.04850851 0.07655536 0.23804463 0.08073826 -0.017616881 0.056207497 0.033890545 0.12661542
-0.13846722 -0.077794746 0.097115204 -0.032485638 -0.08619359 -0.3928731 -0.82824093 -0.37885022
0.07544499 0.123673424 0.19023159 0.16924798 0.3393473 0.28998825 0.14774673 0.08647471
0.17984928 -0.09383427 -0.054566815 -0.016409757 -0.17668141 -0.071809866 -0.10036148 -0.09688468
-0.35756487 -0.08131673 0.053722158 -0.57015353 -0.4214342 0.03162879 0.37673166 0.27087992
-0.0044450937 -0.014364946 0.035071634 0.06978661 0.050397236 -0.030985631 0.0466179 -0.04177511
0.008388859 0.008517591 -0.3202214 -0.026640663 0.14308193 0.17116494 -0.086815126 0.18271935
0.4330718 -0.022795849 -0.12207488 -0.21472648 -0.019774096 -0.076183565 -0.092197895 -0.026996031
-0.046758834 0.05524495 -0.019149914 0.08657066 0.12046687 0.022310935 -0.14410292 0.02471153
-0.015147208 -0.13365741 0.045278408 -0.15224609 0.029255807 0.13334009 -0.17471759 -0.066294506

fc1.weight f4 [120, 288]
00000000: 4e9a d5be 951e 72be 4f73 babe 7db7 24bf
00000010: 9daa f9be bbeb 03be 678e 07bf 32ac 05be
00000020: 74e9 b6be 6fdf 6bbd 4c45 35bd 34cd a1bd
00000030: c2b3 b5bd 4d14 afbd bf55 833c 43ad c2bd
00000040: 2536 af3c 4757 953d 38bb 273d aaaf 2d3e
00000050: 3bbd 143e 28b3 c83d abfc d83d c244 ff3d
00000060: a7eb 683d 6e43 86bb 7bb0 7a3e 360c e13d
00000070: 4466 773d d9a5 18bd 951f 1d3e e820 753d
00000080: f256 c83d 8675 3fbc 9c87 be3c 5d48 fc3d
00000090: 6cbb 5bbd aade 3f3e a60e 5a3e 9403 933d
000000a0: 6c43 d83b aa08 0b3e d7c2 133d b4a1 acbc
000000b0: 4b60 493d 7f5e 9ebd bb4b e2bd 501b 7abd
000000c0: 6be7 3dbe 16b3 233b 5cdb fdbd dc95 d63c
000000d0: ea74 0bbe e6be 663d f74d 4c3e 9865 f93d
000000e0: c546 5d3e 7e3a 1e3e b63d 333e aeee 503d
000000f0: 5250 c53d 0475 fd3d e596 ed3d 5108 9abe
00000100: 6e7c a2be 762a 14be b844 7abd b039 80bd
00000110: c3a7 2bbd 54ec 20be 780b 92bd 2b4f debd
00000120: 50a1 963d 9c69 5e3e df63 0e3e dcd1 ca3d
00000130: 51f8 ee3d 0fe2 eb3d 0573 b43d d8da 2f3e
00000140: 8132 f83d 9f26 6c39 7798 b33c e328 29bd
00000150: 14a2 2c3d f097 b03d 4763 443d b2fe a1bd
00000160: 1928 843d 85d1 a43d a414 653e ff0d 1b3e
00000170: 7cee 663e aeaf 663e 106d 443e 1449 e73c
00000180: cb73 573d 8f12 43be f7c1 cc3d 3500 893b
00000190: f55a 30be 88cc b03c b943 d4bd 5a0d c6bd
000001a0: 171a a03b 3c1e 343e ea29 643d 899d cc3d
000001b0: a4bf 5fbd 6655 b9be 312a 91be 76c1 26be
000001c0: 4a4c 89be e0a6 95be 48bd 2fbe dcc6 20be
000001d0: 0b77 68be 92ef 10be 14db 63be 9770 70be
000001e0: fb9e 22be 2367 10be 913c 34be 8127 383d
000001f0: 78d1 c63c 1899 51be c807 1d3e b9fa 3a3d
00000200: a20f 473e ea8e 043e 90a1 bebc e228 763d
00000210: 1d86 593e 652f 0f3e d88c 0d3e 4ec8 703d
00000220: ebce a53d 3699 093d f33b d6bc 694d f53d
00000230: cc20 253e f354 adbc 6c1b e4bc 4ce2 a93b
00000240: 2f08 0ebe e74f 50be d2ab 17be 5459 d6be
00000250: 91f5 97be fdc3 92be 1150 85be 208c c8be
00000260: 0227 3abe c13b efbc 0244 78bd 5dd9 41bc
00000270: 0df3 03be 811a 323e e9ed 003e 74df 153d
00000280: 28ce ed3d 0cb7 4a3e 6bca 8d3b c1b9 133d
00000290: 593b 1bbd 7799 97be c39b 47bd ab52 e8bd
000002a0: d749 d0be 8fab 6a3d 8581 a1be 12df 7a3c
000002b0: e43e a5bd 6071 a03d 9f08 223c 90b9 57bd
000002c0: 493d d23d 9767 713d 3087 aabb 0278 9e3d
000002d0: 415a e13d 1fd2 2f3e da57 153e 555e dfbc
000002e0: 37f3 093d 7c74 4d3d b6d1 babc 16f4 d63c
000002f0: a872 2f3e 473e 8b3e 764e fe3d 5ee2 243e
00000300: ebcd a63d 4fdc d53d 894b af3e 6e88 413d
00000310: 441f 0d3e 05b8 a13e 9faf 4d3e 1325 403e
00000320: 57b3 3e3e 56d7 bc3d 0aaa 723e b0dc 493e
00000330: 8f50 5f3e fc56 943e 6148 863e e07b 603c
00000340: 7e51 db3d 03af 5b3c d1d5 17bc af77 cc3d
00000350: e624 0dbc 04d0 033e b281 79bd 382d fa3d
00000360: 0e1f bfbd e15a 2abe 3350 86bd 88e2 6dbe
00000370: 1ede 81be d56f 51be 6afc 64be c1f5 febd
00000380: ec9d 84be 6a6e 01be 9bc7 85be 4532 10bd
00000390: d53f e6bd 9ec4 bebd 04b7 d0bd e1a5 b0be
000003a0: 35b6 9fbe 63b4 acbe 72f2 b93e b087 c43d
000003b0: 7b94 d83e 5665 453e f82b 613e 5681 673e
000003c0: 4b58 95bd ce11 c4bd 2f05 8bbe df5f 553e
000003d0: 1a58 583e 9549 0a3e 4207 3c3e cc36 4b3e
000003e0: acd6 923d 013c 583e 947c 3d3e 4ac1 493e
000003f0: 2f54 1ebe 230a 17be 1ba2 563d 32bc 49be
-0.41719288 -0.23644479 -0.36416098 -0.6434248 -0.4876298 -0.12882893 -0.52951664 -0.13053969
-0.35724986 -0.05758613 -0.04425554 -0.079004675 -0.08872177 -0.08548794 0.016032098 -0.09505703
0.021388123 0.072920375 0.04095003 0.16961542 0.1452531 0.09799796 0.105950676 0.124642864
0.05686536 -0.0040973937 0.24481384 0.10988657 0.060400262 -0.03726754 0.15344079 0.059845835
0.097822085 -0.011685735 0.023258023 0.1231849 -0.053645536 0.18737283 0.2129465 0.07178417
0.006599834 0.13577524 0.036074486 -0.0210732 0.049164098 -0.077328674 -0.11049601 -0.061061203
-0.1854531 0.002497857 -0.12395355 0.026194505 -0.13618818 0.0563344 0.19951616 0.121775806
0.21609028 0.15452 0.1750401 0.051008873 0.096344605 0.123758346 0.116010465 -0.3008447
-0.31735557 -0.14469323 -0.06110069 -0.06261003 -0.041908037 -0.15715152 -0.07131094 -0.10854944
0.07354987 0.21719974 0.13905285 0.09903309 0.11668456 0.11517727 0.08811001 0.17173326
0.12119008 0.00022521101 0.021923287 -0.04129876 0.042146757 0.0862273 0.04794624 -0.079099074
0.064529605 0.08047775 0.22371155 0.15142058 0.22551912 0.22527954 0.19182229 0.028233089
0.052600663 -0.19050048 0.09997933 0.004180933 -0.17222197 0.021581903 -0.103644796 -0.09670515
0.0048859227 0.17589658 0.055704035 0.09990985 -0.054626122 -0.36197966 -0.28352502 -0.16284737
-0.26816016 -0.29228878 -0.17162049 -0.15700859 -0.22701661 -0.14153889 -0.2225154 -0.2348045
-0.15880959 -0.14101844 -0.17601229 0.04495955 0.024269804 -0.20468557 0.15335 0.045649264
0.19439557 0.12945142 -0.023270398 0.060097583 0.21242566 0.13982923 0.13823259 0.058784775
0.08096107 0.03359338 -0.026151633 0.119776554 0.16125792 -0.021158671 -0.027845107 0.0051844474
-0.1387031 -0.2034298 -0.14811638 -0.41865027 -0.2967954 -0.28665152 -0.26037648 -0.39169407
-0.18178943 -0.029203298 -0.060611732 -0.011831609 -0.12885685 0.17392923 0.12590756 0.036590055
0.11611587 0.1979639 0.0043271086 0.03606582 -0.037898395 -0.29609272 -0.04873253 -0.11343893
-0.40681335 0.057292517 -0.31544128 0.015311973 -0.08068636 0.078341246 0.009889751 -0.0526672
0.102655955 0.05893668 -0.005204104 0.077377334 0.11003543 0.17169999 0.14584294 -0.02726666
0.033679213 0.050159916 -0.022805076 0.026239436 0.17133582 0.2719595 0.12417309 0.16101977
0.081447445 0.10442411 0.34237316 0.04724925 0.13781458 0.31585708 0.20086525 0.18764143
0.186231 0.092207596 0.23697677 0.19713092 0.21808074 0.28972614 0.26227096 0.013701409
0.10708903 0.013408425 -0.009267286 0.09983765 -0.008614754 0.1287232 -0.060914703 0.12215656
-0.09332095 -0.1663623 -0.065582655 -0.23230946 -0.25364774 -0.20452817 -0.22361913 -0.124492176
-0.25901735 -0.12639776 -0.2612885 -0.03520419 -0.11242644 -0.093148455 -0.101911575 -0.34501556
-0.311937 -0.33731374 0.36317784 0.09596193 0.42300782 0.19276938 0.21989429 0.22607931
-0.07292231 -0.095737085 -0.27152392 0.20837353 0.21127358 0.13504632 0.18362144 0.19845122
0.07169852 0.2111664 0.18504554 0.1970264 -0.15461801 -0.1474996 0.05240069 -0.19700697

fc2.weight f4 [120, 120]
00000000: 4a4e 273d bd31 35bd 88a8 b83d 190a 91bc
00000010: ff3a abbc 9e9d 1dbe fcd4 1ebf b218 70bd
00000020: 063c d03d 5df5 073e 98da 9dbd 9cbb b9bd
00000030: 6557 da3d 7d8d 35be a695 953d f8ee 8a3c
00000040: f2a1 ebbc 5029 003d 3691 283a c1f1 02be
00000050: beea 3dbe 8008 77bd b0a9 eabd ca82 213d
00000060: 52ab aa3b 9c6a 2f3b b5e5 bb3d 2266 aebe
00000070: 179e 1b3e d58b 043b 3d73 06bd 7c3d e2be
00000080: 5d0c 113e 5256 a6bd ae01 953d 9c43 773c
00000090: 2a58 d63d 6747 e6bc 7550 64be 5068 1fbe
000000a0: f115 04bf 1c1a b2bd 1589 f9bd e76a 39b9
000000b0: c460 573d 45f7 8b3d 25c5 b23c a644 6fbd
000000c0: c814 55bd bd11 a43c 9129 c03c 5e2f 73bc
000000d0: 4829 cbbd 9ae7 e9bd 5abd 663d af6b 80bc
000000e0: bd59 ccbe 6234 c73d 61a2 61be 9d39 96bd
000000f0: f282 543d d538 92be bf0c 13bd 0d6c 463d
00000100: 4f37 903d b1c4 8cbe aef9 393d cf03 93be
00000110: 22f4 e03c 43cd 10be 76c3 3bbe c43f aabc
00000120: 84ea 02bf 3a4f a7bc c8e4 7fbc 610d 05bc
00000130: 9476 fb3d 4c84 bf3c 5223 bfbd 761c 06bc
00000140: a502 833d f3c9 c6bd 9756 163e 7f00 063e
00000150: df74 4e3d e893 8a3a 72c0 2d3d 8a1f 92be
00000160: 414c f73d 77e8 933d 3dc4 eebb 34df 0ebd
00000170: 5181 94bd 7db9 ed3d 98fd 0d3d cf3d 703d
00000180: f523 a93b 5c10 9d3c 8ca7 89bd 8207 f9bc
00000190: ca4f 353e 2e46 2e3d 7d71 5b3d 6bab 4e3d
000001a0: 516f 22be 3fdd 8dbd d243 ee3d a4d7 f03d
000001b0: c4ce 243d 030b d33c 77e1 b73c 7815 aa3c
000001c0: 4e2a 033e 9e32 12be 2336 c43b 17c1 80bc
000001d0: b007 a2bd 2330 9ebd 0357 0a3d 781b 46be
000001e0: 59e8 b53b c2c1 b0bc 74ed 393d 44a3 613d
000001f0: 5b4a f33b 2532 cbbe 1974 f7be 72a0 403c
00000200: db1e 6b3d 6d15 9d3d 8cbf 81bb 66e8 6abd
00000210: 8aba ea3d a709 51be 9905 d13d 1793 e53c
00000220: 6c82 c33d e83a 4bbc 69f5 623d 2102 c13b
00000230: 9b7f 80be 0502 003c e002 e8be 6095 b73b
00000240: 60dc 5d3c bcf4 4bbd 4da9 91bd 7ca1 4cbf
00000250: 16c5 8e3d 6806 b5bd 5630 b9bd 6181 b7be
00000260: 2a80 cd3d 12a2 143d 4075 1c3e 5a23 85bb
00000270: a6b6 663d 6b47 93b9 e1c5 11bf 0f9b 5a3d
00000280: e115 0fbe 0a2d 633c 3fe1 20bf 78b0 0fbd
00000290: a67d e63d 5c09 19bd 0656 cd3d 33c1 563d
000002a0: 5739 f4bb 4949 633c 162c d13c e460 9bbd
000002b0: f0a5 9cbc ff5d 653c db10 eabc dd1a 45bd
000002c0: fa4d f6be 8b00 ee3d c12c 233c e689 953c
000002d0: 0f29 f5bd 161d 1dbf 3bc3 83bd d55f 333c
000002e0: 2418 a7bd 9a45 98be 371e 6cbd 1c34 13bf
000002f0: 8cca 22bc b4fc 88bd 2dd4 94be cc5f 28bd
00000300: 986e 27bf 3a67 053c dcd8 64bb 31ff 2b3d
00000310: e182 d13d 3c47 ca3c 038e e43c 2374 813d
00000320: 128f 9dbd d8d0 f5bc e49e 533b ac74 02bc
00000330: 9eda 373d ae43 70bc 924e 8a3d 0cd6 28bf
00000340: e3a3 e53d e39e a7bb c23a 09bd f602 403d
00000350: 00d5 f33b f82b 96bd 089d f33d 62e6 3a3e
00000360: d4c4 c8bd cce4 7c3d bb7a e63d a062 893c
00000370: 7c6b e43d 0e9c 20bb ecfa 9a3c 8b6a f93c
00000380: 10dc f3be 0192 80bd 1ed1 233d 1a47 32bd
00000390: 9c7e 2a3d e86e c03c 8d8d 0abe c4e6 8dbd
000003a0: ccad 23bd 3cc8 f6be e991 8ebd dd2b 063d
000003b0: 6d76 e7bb bb98 bc3d e598 7a3d 5a2a 13bf
000003c0: e304 a83c 84f0 b9bb 7f84 eb3d cc19 1dbd
000003d0: 48f6 7fbd 0c84 063e af3a a5be e0f5 893d
000003e0: d2e2 5d3d 1a82 e63a e9ac 863d d748 923c
000003f0: 92cf 7e3d 2de5 c4be 82cb e93c c7b9 3abc
0.040846147 -0.044236887 0.0901652 -0.01770501 -0.020902155 -0.15392157 -0.6204374 -0.0586173
0.101676986 0.13277192 -0.07707709 -0.09068987 0.106612004 -0.17729755 0.07303934 0.016959652
-0.028763745 0.0312894 0.00064303295 -0.12787534 -0.18546578 -0.06031084 -0.114581466 0.03943137
0.0052084113 0.0026766425 0.091746725 -0.34062296 0.15197025 0.0020224948 -0.032824744 -0.44187534
0.14164872 -0.08121933 0.07275711 0.015091803 0.10466035 -0.02811022 -0.22296317 -0.15567136
-0.5159598 -0.08696386 -0.121843494 -0.00017682799 0.052582517 0.06834272 0.021822521 -0.058415078
-0.05202177 0.02002799 0.02345732 -0.014842836 -0.09919983 -0.114211276 0.056332923 -0.015676348
-0.39912215 0.09726788 -0.22034599 -0.073352076 0.05188269 -0.28558984 -0.035900827 0.04844289
0.07041799 -0.27493814 0.04540413 -0.28713843 0.027460162 -0.14140801 -0.18336281 -0.020782359
-0.5113909 -0.02042352 -0.015618511 -0.008120866 0.12278476 0.023378514 -0.09332909 -0.008185497
0.06396989 -0.097064875 0.14681469 0.13086127 0.050404426 0.0010572644 0.04241986 -0.28539687
0.12075091 0.072220735 -0.007286577 -0.03488083 -0.07251228 0.11607645 0.034665674 0.058652695
0.005161757 0.01917284 -0.0672141 -0.030399088 0.17706218 0.042547397 0.053575028 0.050456446
-0.15862776 -0.06926965 0.116340294 0.1175988 0.04023625 0.025762087 0.022446377 0.02076219
0.12809107 -0.14277121 0.005987899 -0.015717072 -0.079116225 -0.07724025 0.033774387 -0.19346416
0.0055513796 -0.021576766 0.04539247 0.055087343 0.0074246353 -0.39686695 -0.48330763 0.011757003
0.057402473 0.07670102 -0.0039596017 -0.05735054 0.11461361 -0.20413838 0.10206146 0.02802424
0.095463604 -0.012404181 0.055409823 0.0058901464 -0.25097355 0.0078129815 -0.45314693 0.0056025237
0.013541311 -0.049793944 -0.0711237 -0.79933906 0.06971185 -0.088391125 -0.090424225 -0.35840896
0.10034211 0.036287375 0.15279102 -0.004063052 0.05632653 -0.00028091235 -0.56942564 0.05337053
-0.1397319 0.013865719 -0.628437 -0.035080403 0.11254434 -0.03736244 0.10026173 0.052430343
-0.0074531245 0.013872453 0.025533717 -0.0758684 -0.019122094 0.013999461 -0.02857249 -0.048121322
-0.48106366 0.11621197 0.009959401 0.018254232 -0.11970722 -0.61372507 -0.06433722 0.010948141
-0.08158901 -0.29740602 -0.057646003 -0.5750139 -0.009935986 -0.06688824 -0.29068127 -0.041106984
-0.6540313 0.008142287 -0.0034919297 0.041991416 0.10230041 0.02469217 0.027899748 0.063209794
-0.07693304 -0.030006811 0.003229075 -0.007962387 0.044886224 -0.014664574 0.06753267 -0.6595161
0.112128995 -0.0051153763 -0.0335033 0.046877824 0.007441163 -0.07332605 0.11895186 0.18251947
-0.09803167 0.061741635 0.11253878 0.01677066 0.111533135 -0.0024507078 0.018918477 0.030446311
-0.47628832 -0.06277848 0.03999435 -0.04352484 0.04162465 0.023490384 -0.1353056 -0.06928781
-0.039960667 -0.48199642 -0.06961424 0.032756675 -0.007063678 0.092088185 0.061180968 -0.574865
0.020510143 -0.0056744236 0.11499881 -0.03835468 -0.06249073 0.1313631 -0.32271335 0.0673635
0.05417139 0.0017586381 0.06575949 0.017856998 0.062209673 -0.38456097 0.028539423 -0.011396832

fc3.weight f4 [84, 120]
00000000: 0716 1b3e 3dc6 7e3d 9983 b53d 5585 58bf
00000010: dbfb c43d 6fee 7c3d 3075 b1be 6d5d 8bbe
00000020: 73a4 203d 48a7 263d 891e d1be afee b23d
00000030: 6ea1 1b3d 9b6a d33b 8e64 d9be 6406 b93d
00000040: a085 30be 08ba 783d 57c7 19be b718 abbd
00000050: a125 3e3d 86b1 cebe 5377 56be 582b dfbd
00000060: 4948 33be c623 ca3d 12b3 a93c 2518 d2be
00000070: 61a8 a43d cb0a 8d3d e88b 323b c91a a5bc
00000080: c46c 24be 2392 11bf 6185 25be 2058 613d
00000090: dc60 d0bc 6d9a da3d 2e1f f1bd f3da 773d
000000a0: 3dc7 a8be bbbd 56be 3faf 413d 4cf3 713d
000000b0: 0fc1 97be c5ee 9ebe 276f de3c 79b3 60bc
000000c0: c6be b9bd 2be8 2bbe f06e e5bd 547b c0be
000000d0: 0c99 b6be 4326 bb3c 2be9 bd3d 488f 833d
000000e0: 5029 8dbe 1d0d 293a 64f3 83be bd0a 84bb
000000f0: f7a7 22be a6e3 58be 79ea 9fbe 120f 7ebe
00000100: a6cc 4dbc ddc5 153e 6211 313c d70a 72be
00000110: b2a1 86be 7dba 1d3e 739a 41be 3678 a63d
00000120: d6c5 8dbe e2e2 81bb d55d 703b 3338 f9bc
00000130: 2bd6 09be e2c5 42be c9c2 a8be f019 153d
00000140: 797a 263d d2b9 8dbe 532b 3ebe 1f33 74bd
00000150: d6cd 8f3d 23f0 f63c 32a1 6f3e c1d9 26bf
00000160: 8006 833d df97 b53d a6c8 b4be a3bd 9dbe
00000170: f9f1 fc3d dc53 5d3d c8a9 9cbd 6f36 003d
00000180: e07b f6be be55 b33b 1a8d 033d a1ad a3be
00000190: 3a96 ca3c 41bd 0d3d 3c77 61be 332f 573d
000001a0: 3228 d8bd 1efb 2a3d 43fc b6be be8c d83d
000001b0: 999f bebd 10a1 b4be 57e4 1c3c 9664 ae3d
000001c0: c38d 0d3c 0a65 ca3d b788 d03d 07a4 423d
000001d0: 117f 9c3c d582 5ebe 8f4f 86be 54c4 40be
000001e0: 9009 bfbe 7afb c9be b0fc 2fbf 56b8 0a3d
000001f0: 8e89 47bf 4bcb 0e3d e19e 0c3d e2be 8d3d
00000200: 642d 363e 31e7 c4be 574d d53d 44f5 34bf
00000210: 0db0 33bf 04a6 29bf b8de ae3d 89d9 6dbf
00000220: c07e cbbd 4d1a 32bd 1573 453d 606e 4b3d
00000230: 18ea b8bc f008 d1be a241 1a3d 6008 c8bc
00000240: 1aee 043d e14e afbd 5c6f 393d 41b6 223d
00000250: 3d6f c33c 59fa 6c3d c146 d3bd b05e e9be
00000260: 9544 70be eb5b 863d e84f 033d f1df 17be
00000270: 9701 5bbf 64a1 69bd 0b0d d03c 49ed 903d
00000280: 1fd4 1a3d 7023 c33d a417 2cbf 896b c2bd
00000290: 182d 813d b244 5c3d a4d6 853d a65a 5abf
000002a0: 14c5 743c e085 ad3d fc0b 003d 83fa a03d
000002b0: 7d57 1f3d c1a1 febe 5efb 9a3d f5a1 b4be
000002c0: 4b04 df3d 2c24 90be a300 423d a885 48be
000002d0: 4d67 543d a8ad f9be 7be6 d33d 804e fd3c
000002e0: b73f a5bc bd01 0cbf d35b 10bf 13b0 5b3d
000002f0: 62b2 3c3d 88f2 24bf a239 703d 628c 0e3d
00000300: 65a4 ae3d 4d99 34be 6f4f 8a3d f297 36bf
00000310: 697c 743d c7ce 013e 2bc8 a33d 51a5 8f3d
00000320: 99f4 18bf f4bb 793d 3e30 733d 87b4 b6bd
00000330: 5282 84be 6d18 30bd fb77 31bf 6e43 0b3d
00000340: 3443 91bd abc4 36be 3657 48bf aa20 9c3d
00000350: 5b29 78be f798 8c3b be5b 263d 6b8a b9be
00000360: 84b8 413d faf5 e4bc 1911 64bd b725 913d
00000370: f23f 563d 46d3 473d 2b46 bf3c bc67 32bf
00000380: d61c a33c aee3 7abe 4ed8 e43d 14bf 9dbc
00000390: bbf0 0dbd f99f cb3d 9a6d 593c b963 f1be
000003a0: 283d 7b3d 9424 0f3b 0a7f 15bf 0317 73bf
000003b0: 14a6 c6be a524 eb3c 347c 203d cb31 133d
000003c0: 0af8 1dbf 86a0 f3be dabc 26be bc62 94bd
000003d0: d943 af3d df5c bc3d 49a9 6e3d c121 bc3d
000003e0: 7802 d83d ed05 5cbd e3d6 b63d 77e6 b5be
000003f0: e296 213d b7cc 04bd dc6b a23d 8826 ed3d
0.15145122 0.062200774 0.08862991 -0.8457845 0.0961835 0.061750825 -0.3465972 -0.27219716
0.03921933 0.040686876 -0.4084361 0.087369315 0.03799575 0.0064519173 -0.4245953 0.09034422
-0.17238474 0.06072429 -0.15017448 -0.08354323 0.046422604 -0.40369815 -0.20943956 -0.10896939
-0.17508043 0.098701045 0.02071527 -0.41034046 0.08039928 0.06886824 0.0027244035 -0.020154374
-0.16057116 -0.5686361 -0.16164161 0.055015683 -0.025436811 0.10673986 -0.11773525 0.06051154
-0.32964507 -0.20970814 0.04728627 0.059069917 -0.2963948 -0.31041542 0.027152611 -0.013714665
-0.0906959 -0.16787784 -0.112028 -0.37594092 -0.3566364 0.022845393 0.09272989 0.06423813
-0.2757058 0.00064487924 -0.2577163 -0.0040296004 -0.15884386 -0.21180591 -0.31233576 -0.24810436
-0.012560999 0.1462626 0.010807367 -0.23636948 -0.2629524 0.15403171 -0.18906574 0.08128397
-0.2769 -0.003963814 0.0036677022 -0.030422306 -0.13460605 -0.19020799 -0.3296111 0.03640169
0.040644143 -0.27680832 -0.18571214 -0.059619065 0.07021682 0.030143803 0.23401335 -0.65176016
0.06397724 0.08866858 -0.35309333 -0.30808744 0.1235084 0.054035053 -0.07649571 0.031301912
-0.48141384 0.0054728677 0.032116987 -0.31968406 0.024729837 0.034604315 -0.2201814 0.052535247
-0.10554542 0.04174339 -0.35739335 0.105737194 -0.093077846 -0.3527913 0.009575925 0.08515279
0.008639756 0.09882553 0.10182326 0.04751971 0.019103559 -0.21729596 -0.26232573 -0.18824893
-0.37311983 -0.39449674 -0.68744946 0.033867203 -0.77944267 0.034861844 0.034331206 0.06921174
0.17790753 -0.38457635 0.10415142 -0.70686746 -0.7019051 -0.66268945 0.08538574 -0.9291006
-0.09936285 -0.043482114 0.048205454 0.04966581 -0.022572562 -0.4082713 0.03766025 -0.024418056
0.032453634 -0.08559967 0.045272216 0.039724592 0.023856753 0.057855938 -0.103162296 -0.45580053
-0.23463662 0.06560501 0.032058626 -0.1483152 -0.855493 -0.05703868 0.025396844 0.070765086
0.03779995 0.095282435 -0.6722357 -0.09493167 0.06307429 0.05377645 0.0653508 -0.8529457
0.014939565 0.084728 0.03126143 0.07860281 0.038901795 -0.49732783 0.07567476 -0.35279813
0.10889491 -0.28152597 0.04736389 -0.19582236 0.051856328 -0.48765302 0.10346695 0.03092122
-0.020171983 -0.5469015 -0.5639011 0.053634714 0.046068557 -0.64432573 0.058648713 0.03480185
0.085274495 -0.17636605 0.06753432 -0.713256 0.05968896 0.12676536 0.079971634 0.070139535
-0.59748226 0.06097026 0.05937218 -0.089211516 -0.25880677 -0.042992044 -0.693237 0.033999853
-0.07092896 -0.1784846 -0.78258073 0.07623418 -0.24234526 0.004290696 0.040614836 -0.36238417
0.04729511 -0.027949322 -0.055680368 0.07087272 0.052307077 0.04878547 0.023348888 -0.69689536
0.019911211 -0.24500915 0.11174069 -0.019256152 -0.034653407 0.09942622 0.01327076 -0.47146395
0.06133762 0.002184187 -0.5839697 -0.9495699 -0.38798583 0.028703997 0.03918095 0.03593616
-0.617066 -0.47583407 -0.16282979 -0.072453946 0.08557863 0.09197401 0.05826691 0.091861255
0.10547346 -0.05371659 0.08927705 -0.35527393 0.039450534 -0.032421794 0.07930729 0.11579615

fc4.weight f4 [10, 84]
00000000: f3a5 473d 9553 383e 87cb d4bd ab70 c43d
00000010: ccbf 23be eabd f6bc fcbe 383d fcf2 de3d
00000020: 00fc a2be 22ee b43d f9eb 97bd 2434 e43d
00000030: deb8 003d 00d8 073e ba11 c0bd d93a b6bd
00000040: 53de 14bd 9deb a63d f547 ac3e 9e8b 413e
00000050: 9387 0bbc 765d e43c ec98 abbd 1110 ed3d
00000060: 74e7 cfbd ae33 f93d 3410 4a3e ecd0 d9bd
00000070: eef1 46be 0fd5 eebd 3d95 a5bd 8848 08bc
00000080: 17d8 b3bc 74e1 d03c 867b a33d dd4c cb3c
00000090: babc 323e 3eab 363d f095 853d 4496 3f3e
000000a0: 62e4 1d3e 4cb6 363e ec38 8a3d 8a1f 29be
000000b0: c82b 353d 5287 78bb d3b5 cb3d 3f16 12bd
000000c0: 0182 553d a507 8a3d db43 abbb a63a 563e
000000d0: 1a72 bd3d 0d27 6bbe f018 6dbe 004e 143e
000000e0: 3d53 37bd cac7 01be 8c4a 973d a6d8 c8bd
000000f0: 914a ed3d fbe5 9fbc 79b7 42be 1423 06bd
00000100: a76e fd3d f35e 18bd e8af 303e 16ec 433e
00000110: bbf1 0a3e ce80 b43d e230 2bbd 7b91 f8bc
00000120: fd43 333e 0b97 e8bd 1330 18be e065 ea3d
00000130: be1c 06bd dd1e c43d f9d6 1abd a5ab 37bd
00000140: 9bb9 0ebe d122 0abe 7e1c 453e 5c92 c03c
00000150: 98eb bc3d b487 c23b 0968 1b3d 6db5 ed3d
00000160: 5aa9 833d 3c72 9ebd 8760 3c3d 6f11 00be
00000170: de4b 8d3e 9ac6 60be e8fe 273e 4cd1 18be
00000180: 34ab 00be e07d 75bd a925 3f3e f953 013e
00000190: 9350 08be 15dc a03d 3942 ad3e 17a8 a1bc
000001a0: 8faa 0abe 021c e5bd bc7a 1bbd b6c9 2b3c
000001b0: b5e2 d5bd 355c 10be e6a6 87be 01e8 b0bd
000001c0: 7934 b3bd f524 70bd 1f76 573c 638f 05be
000001d0: cba5 5c3d 012d b6bb e4b9 cfbe 77dd eebd
000001e0: d1b5 5ebe ead0 263e 3a74 813e 9feb 8c3d
000001f0: 5495 cebd 16e1 96bd 5ada ac3d 9e6f 06be
00000200: 592d 2d3c 5f37 d0bc 6036 803d ded5 4ebd
00000210: f9f6 e2bc 8b12 5abe 3ee8 46bd 9e13 0ebd
00000220: 7a84 683d f891 63be ca62 3fbd ef1d cb3d
00000230: 45e9 1a3d 0560 2b3e 1802 50be 93aa 313d
00000240: f0e9 abbd 0eb5 d53d 53ec e43d 8073 2dbc
00000250: 4f00 8b3d 2382 503d 8010 c93d 9928 07be
00000260: c4f3 bfbd 9273 57bd 362c d63d 2728 ba3e
00000270: 9280 793d e77a 173e 5cbe 96bd 953d d5bd
00000280: d494 b43a aad9 39bd d625 393e 841f 41bc
00000290: 3825 1f3e b326 c5bd e612 15be b908 9e3e
000002a0: 0488 20be 804b 58be 66fe f8ba f3c9 393d
000002b0: 50bb 2b3e 25cd 1abd 9b2c 013e b9ef 02be
000002c0: 71b0 d6bd 8072 48bd 02b3 88bc 1b16 2ebe
000002d0: 27db 4d3d ba34 933d 3a73 e6bc d972 dabd
000002e0: 3708 3ebd 044e 8ebc 8d5a a33e 9242 1abd
000002f0: 68e5 583e 9d1e 9dbd 60b5 ae3d 0fe5 66bc
00000300: b730 633d 0eed aabd 304d 943e 776e 0d3e
00000310: e704 a03d f057 c3bd 20d3 1ebe aff5 6cbe
00000320: 155f 5bbe ee7e 9b3c 9d92 3d3d 226a 6bbc
00000330: 21bd 953d 6b50 9dbd 37cd b3bc 20a4 46bd
00000340: 674f 593d c96d 5b3c 1eb6 19bd 9baf bd3d
00000350: 8cc2 1bbe 10d1 963b 006f 063e e29b 683d
00000360: 173a e13b 5ae9 fdbd 78f6 3c3e 9e60 763c
00000370: 5862 5fbe 8fd9 2fbe 6f22 013e a732 a7bd
00000380: bcf4 923e 60ca c63d 0f23 2e3e 7218 f3bb
00000390: 864d a03d 8f14 0b3c 501e b7bd a312 2c3e
000003a0: ff51 10be d8a6 153e ad60 373e a0da b53d
000003b0: 2fa9 0b3e 29aa b5bd 6fd9 ccbc 80f8 8b3e
000003c0: a496 06be 143a dabc f11b acbc 3874 adbd
000003d0: 9f77 793e f26a 3b3e 3412 bb3d a0df 0dbe
000003e0: f6d0 03bd 33e7 dd3c 4540 fa3d 99ff 02bd
000003f0: 07c8 063e 9b92 d83d 4b83 75be dd23 453e
0.048742246 0.18000634 -0.10390382 0.09591802 -0.15991133 -0.030119855 0.045104012 0.10886189
-0.31832886 0.08834483 -0.07418055 0.111427575 0.031426303 0.13265991 -0.09378381 -0.08897943
-0.036344837 0.081504084 0.3364865 0.18900916 -0.00851621 0.027876597 -0.08378777 0.1157533
-0.10151568 0.1216806 0.19732744 -0.10635552 -0.19428226 -0.116617315 -0.080851056 -0.008318074
-0.021953626 0.02549813 0.079825446 0.024816925 0.17454806 0.044596903 0.06522739 0.18709666
0.15419152 0.17842978 0.06749138 -0.16515937 0.044231206 -0.0037922454 0.099467896 -0.035665747
0.052125935 0.06739739 -0.005226595 0.2092081 0.09250279 -0.22964115 -0.23154044 0.1448288
-0.044757117 -0.1267387 0.073872656 -0.098069474 0.11586488 -0.019518843 -0.19015302 -0.032748297
0.12374621 -0.037199926 0.17254603 0.19133028 0.13568775 0.0881363 -0.041794665 -0.030342808
0.17506404 -0.11356934 -0.14862089 0.11445212 -0.032742254 0.09576199 -0.03780267 -0.044841427
-0.1393799 -0.13489844 0.1924915 0.02350729 0.092246234 0.005936587 0.037941013 0.1160687
0.064287856 -0.07736632 0.045990493 -0.1250665 0.27596945 -0.2195076 0.16405833 -0.1492359
-0.12565309 -0.059934497 0.1866671 0.1262969 -0.13311987 0.07854477 0.33839586 -0.019733472
-0.13541625 -0.11186983 -0.037958845 0.010485103 -0.104436316 -0.14097674 -0.2649452 -0.08638001
-0.08750243 -0.058628995 0.013150721 -0.13042979 0.05386905 -0.005559564 -0.4057151 -0.11663335
-0.21749045 0.16290632 0.25283986 0.06880879 -0.10087076 -0.073671505 0.08440085 -0.13128516
0.010569894 -0.025417028 0.06260371 -0.05049693 -0.027705656 -0.21296136 -0.048561327 -0.034686677
0.056766964 -0.22223651 -0.046725072 0.09917819 0.03782012 0.16735847 -0.20313299 0.043375563
-0.083942294 0.10434924 0.11177888 -0.010586619 0.06787168 0.050905358 0.098176 -0.1319908
-0.093726665 -0.05260045 0.10457651 0.3635876 0.06091363 0.14792977 -0.07360527 -0.104121365
0.0013777264 -0.045373596 0.1808084 -0.011787299 0.15541542 -0.09626522 -0.1455799 0.3086603
-0.15676886 -0.21122551 -0.0018996715 0.04535861 0.16770673 -0.037793297 0.12614672 -0.1278676
-0.10482872 -0.04893732 -0.01668692 -0.1700062 0.050257828 0.07187791 -0.028131116 -0.10666437
-0.046394553 -0.017371185 0.31905022 -0.037661143 0.21181262 -0.07671855 0.08530688 -0.014092698
0.05546638 -0.08345996 0.2896514 0.1381167 0.07813435 -0.09538257 -0.15510225 -0.23140596
-0.2142299 0.018981423 0.0462824 -0.014368566 0.07311464 -0.07681354 -0.02194844 -0.048496366
0.05305424 0.013392874 -0.037527196 0.0926201 -0.15210932 0.004602559 0.1312828 0.056789286
0.00687338 -0.12398024 0.18453395 0.015037684 -0.21814859 -0.17172836 0.12610792 -0.08163958
0.28702343 0.09706569 0.17005561 -0.0074186856 0.078272864 0.008488788 -0.089413285 0.16803984
-0.14093779 0.14614427 0.17907973 0.0887959 0.13638757 -0.08870346 -0.025006024 0.27338028
-0.13143402 -0.026639022 -0.021009417 -0.084694326 0.24362038 0.18302515 0.09134331 -0.13854837
-0.032181703 0.027087783 0.1221929 -0.03198204 0.13162242 0.10574838 -0.23975866 0.19251962
