Code/CNN/best_student_normal.pth (torch, 271368 bytes, 7 tensors)

conv1.weight f4 [6, 1, 5, 5]
-0.058772705 0.13626778 -0.14600277 0.118692234 -0.043467432 -0.047759395 -0.017709317 -0.05847491
-0.076454096 0.035353474 0.12342057 0.0738962 0.12540485 -0.39366934 -0.104303464 -0.16858584
0.069877625 0.41379496 -0.08167794 -0.18253225 -0.011841441 0.024858532 0.14006442 0.117434725
-0.001579214 0.030581493 0.10519742 0.023002347 -0.30992934 -0.019557467 0.059269346 -0.020973971
-0.3911661 -0.23697859 0.33019593 -0.0032484478 -0.11582295 -0.107527405 0.39964718 0.2686537
-0.07981301 0.109826624 0.029097078 0.12283264 -0.18027043 0.03582463 -0.05903932 0.0068629594
0.067159496 -0.08420555 0.04715616 0.03207341 0.054757163 0.097908005 0.11343358 -0.10079819
0.054834608 0.14128146 0.069628246 -0.025738936 0.14905037 0.16907492 -0.43310052 -0.40206513
-0.013085175 0.04498709 0.0025653997 -0.36273947 -0.23509707 0.02647967 0.08467729 0.11233521
-0.100219205 0.14743356 0.09447045 -0.009342433 -0.007525123 0.040368102 0.05574503 -0.071111314
0.00069810025 0.065597184 -0.28385642 0.29227605 0.22959551 0.0034737256 0.051824562 -0.49914688
0.14301012 0.31092864 -0.009831038 -0.091103986 -0.16266145 -0.24539593 0.18500409 0.10928926
-0.009779744 -0.08614986 0.008626996 -0.038406186 -0.25574842 -0.20906769 0.016149696 0.013422351
0.04811709 -0.14758077 -0.0520682 -0.17358822 -0.04053217 0.0056856438 -0.102958985 0.08094368
0.020743737 0.015061429 0.1634865 0.02451225 -0.034060232 0.030166972 0.18651687 0.1579726
0.19205627 0.102169834 0.094298944 -0.070187 -0.07655753 0.0851923 0.0063706706 0.0901096
-0.014207912 -0.14388439 0.12513626 -0.18099354 -0.11165354 0.1884004 0.21138069 0.1297175
0.20956293 0.07591277 0.22264868 -0.18344869 -0.1313805 -0.07106901 -0.12483172 -0.063193865
-0.103553385 0.00157503 0.059388295 -0.1952276 0.04838662 -0.11466768
00000000: a6bb 70bd c889 0b3e c081 15be ea14 f33d
00000010: e80a 32bd 5b9f 43bd 2113 91bc 6383 6fbd
00000020: f793 9cbd cece 103d ecc3 fc3d e456 973d
00000030: 216a 003e 078f c9be 0e9d d5bd c4a1 2cbe
00000040: 001c 8f3d efdc d33e c446 a7bd bce9 3abe
00000050: 9a02 42bc 1fa4 cb3c 0c6d 0f3e 9e81 f03d
00000060: a1fd ceba 0a86 fa3c bf71 d73d 6b6f bc3c
00000070: 0faf 9ebe fb36 a0bc 6ac4 723d 9bd1 abbc
00000080: ec46 c8be 84aa 72be 710f a93e e9e3 54bb
00000090: 9534 edbd 5437 dcbd 8e9e cc3e fa8c 893e
000000a0: 0175 a3bd c8ec e03d ff5c ee3c ae8f fb3d
000000b0: d098 38be d9bc 123d 37d3 71bd ade2 e03b
000000c0: eb8a 893d f673 acbd d126 413d 685f 033d
000000d0: 0c49 603d fe83 c83d dd4f e83d 486f cebd
000000e0: 419a 603d 16ac 103e 4199 8e3d 76da d2bc
000000f0: a9a0 183e fa21 2d3e 5abf ddbe 7bdb cdbe
00000100: 3463 56bc 6244 383d 4420 283b fdb8 b9be
00000110: 49bd 70be e5eb d83c 496b ad3d 0110 e63d
00000120: ba3f cdbd d3f8 163e b979 c13d 0111 19bc
00000130: 4f95 f6bb 0659 253d e754 643d cfa2 91bd
00000140: b700 373a d157 863d a155 91be 35a5 953e
00000150: 161b 6b3e 72a7 633b fe45 543d 2e90 ffbe
00000160: 3f71 123e 0a32 9f3e 5d12 21bc ba94 babd
00000170: b990 26be 1249 7bbe b671 3d3e 0cd3 df3d
00000180: 383b 20bc 566f b0bd 3e58 0d3c ce4f 1dbd
00000190: 75f1 82be d715 56be 5e4c 843c 6ce9 5b3c
000001a0: 6d16 453d 6a1f 17be 7745 55bd 1cc1 31be
000001b0: 1005 26bd a34e ba3b 29dc d2bd cdc5 a53d
000001c0: c5ee a93c 36c4 763c 0169 273e eacd c83c
000001d0: be82 0bbd ba20 f73c 47fe 3e3e 92c3 213e
000001e0: 66aa 443e 6b3e d13d ce1f c13d 34be 8fbd
000001f0: 32ca 9cbd 4d79 ae3d 0fc1 d03b 628b b83d
00000200: 4dc8 68bc 6e56 13be b823 003e 5f56 39be
00000210: 9caa e4bd 09ec 403e 2e74 583e aad4 043e
00000220: aa97 563e 2878 9b3d 04fe 633e f9d9 3bbe
00000230: 9c88 06be a18c 91bd c6a7 ffbd c96b 81bd
00000240: cc13 d4bd 3d71 ce3a 2441 733d bee9 47be
00000250: 0c31 463d e3d6 eabd

conv2.weight f4 [16, 6, 5, 5]
-0.045841254 -0.07948 -0.18872486 -0.16838644 0.007234914 0.15185343 -0.17939061 -0.32814598
-0.12484693 0.088036135 0.18730588 0.07345479 0.10981102 -0.08286408 0.030896183 0.18405661
0.12673344 0.34058678 0.06348635 0.05720891 0.02160141 0.07707708 0.14037667 0.11124824
0.10547357 0.033867735 0.08715203 0.025650026 -0.028866705 0.08884292 -0.23919636 -0.44277972
-0.23917304 -0.12789115 0.00061597535 -0.068113886 -0.2245285 -0.16738215 -0.042940013 -0.045145277
0.1471641 0.21786538 0.09626656 -0.022339443 0.028561398 -0.04116163 0.16426879 0.12709329
0.04478822 -0.06475319 0.07866082 -0.09197365 -0.0057357796 -0.15816768 0.09221945 0.07123291
-0.15792288 -0.19465747 -0.1147523 -0.01479706 -0.15823154 -0.32514626 -0.3132927 -0.12680069
-0.10608052 -0.17109095 -0.07176265 0.019452753 -0.06021736 -0.07753447 -0.16280565 0.041750573
0.21655531 0.12116143 0.035447992 0.063438855 0.021357628 0.049689088 -0.058468796 0.17650498
-0.31957325 -0.5096958 -0.2791143 0.028408777 0.17173989 -0.2683569 -0.41256213 -0.23072629
0.00874017 -0.0019120371 -0.014873945 0.16513091 -0.021504106 -0.11869695 -0.04193843 0.102035515
0.24770105 0.0818154 0.06996785 -0.012151142 0.027988516 -0.01945129 0.045887124 0.022371331
-0.0253475 -0.03472944 -0.07194387 0.14654806 0.11969131 -0.006528177 -0.05709316 0.05894955
0.06561408 0.062046286 0.071487375 0.0015333939 0.049105812 0.00020371495 -0.040519726 -0.025128843
0.10109202 0.053684495 0.12434791 0.17274313 0.023712322 0.03758419 0.04634142 0.023290351
-0.085873485 -0.004582533 -0.10489199 -0.2793387 -0.30158448 -0.093296416 -0.010691018 -0.08853477
-0.3905409 -0.2345548 -0.18115447 -0.031530928 -0.06460213 -0.10493131 -0.110603765 0.035800647
-0.007741033 0.06989004 0.12396761 0.08735156 0.14912747 0.09756417 0.17013834 0.0794373
0.08499849 0.008449389 -0.023897417 0.08999366 -0.16899227 -0.17376883 -0.20842783 -0.07420488
-0.27105626 -0.06245975 0.029597627 -0.12021968 0.06367425 -0.0046266564 0.13587616 0.16343854
-0.07401455 -0.040896658 0.002903044 -0.047727726 -0.17367992 -0.12777764 -0.08865108 -0.046154626
0.08194476 0.0858641 -0.009808229 0.0109508205 0.048293617 0.06679738 0.019425306 0.046993367
0.0334843 0.11130276 -0.20458427 -0.29471433 -0.2398793 -0.08471818 -0.41888002 -0.21657568
-0.017349007 -0.018860908 -0.075518295 -0.16048075 0.014556017 -0.030250166 -0.038475543 0.001036671
0.09597299 0.20077574 0.12051968 0.18722299 0.058737308 0.27716285 0.14234005 0.02450897
0.0895739 0.05071654 0.08484576 0.064187534 0.19883074 0.07114364 0.10301841 0.051792245
0.27689284 0.18479376 0.072110854 0.104497716 0.036660574 -0.09796933 0.035233084 -0.009220507
0.014587454 0.08904442 0.15341307 0.060319804 0.15021393 0.07811138 0.17405453 -0.1033504
-0.12129956 0.017428303 -0.0013075942 -0.123778276 -0.19209492 0.17762657 0.08790525 0.04886493
-0.1673318 0.1292663 0.23456647 -0.053864155 -0.010834434 -0.063831106 -0.01782671 -0.19325718
-0.06373181 -0.01964356 0.012864801 -0.09593008 0.1085092 -0.08828452 -0.0062272847 0.058394972
00000000: 0ac4 3bbd 69c6 a2bd 1741 41be 7f6d 2cbe
00000010: dc12 ed3b 777f 1b3e 2cb2 37be c002 a8be
00000020: bfaf ffbd 4a4c b43d 1dcd 3f3e 776f 963d
00000030: 9ae4 e03d a5b4 a9bd fe19 fd3c 5679 3c3e
00000040: 69c6 013e 6461 ae3e 2205 823d e453 6a3d
00000050: 71f5 b03c 97da 9d3d e7be 0f3e 1ed6 e33d
00000060: 8702 d83d e5b8 0a3d c37c b23d 0120 d23c
00000070: de79 ecbc 47f3 b53d e4ef 74be 06b4 e2be
00000080: c7e9 74be e6f5 02be 6879 213a 4b7f 8bbd
00000090: cdea 65be 3a66 2bbe dee1 2fbd 41ea 38bd
000000a0: 30b2 163e 1a18 5f3e 6727 c53d 3501 b7bc
000000b0: 98f9 e93c 1999 28bd 1436 283e be24 023e
000000c0: da73 373d 529d 84bd ed18 a13d ae5c bcbd
000000d0: 35f3 bbbb b5f6 21be 8ddd bc3d 8fe2 913d
000000e0: 89b6 21be 4a54 47be 4103 ebbd 5e6f 72bc
000000f0: 7307 22be 9279 a6be e767 a0be 0ad8 01be
00000100: be40 d9bd 7732 2fbe 4cf8 92bd 615b 9f3c
00000110: 7aa6 76bd 64ca 9ebd 86b6 26be a602 2b3d
00000120: adc0 5d3e 7c23 f83d ea31 113d 3bec 813d
00000130: 31f6 ae3c c986 4b3d fa7c 6fbd b9bd 343e
00000140: 1b9f a3be 6d7b 02bf 12e8 8ebe 86b9 e83c
00000150: 95dc 2f3e 1366 89be 583b d3be 8343 6cbe
00000160: ee32 0f3c 529d faba d9b1 73bc 1418 293e
00000170: 6129 b0bc 6317 f3bd a2c7 2bbd fff7 d03d
00000180: 58a5 7d3e d58e a73d 4e4b 8f3d 9515 47bc
00000190: 2c48 e53c 5058 9fbc 23f4 3b3d 1544 b73c
000001a0: 8fa5 cfbc 7540 0ebd 4f57 93bd b210 163e
000001b0: b820 f53d 51ea d5bb 84da 69bd 1575 713d
000001c0: ad60 863d 3f24 7e3d f967 923d 29fc c83a
000001d0: 2d23 493d 519c 5539 03f8 25bd 01db cdbc
000001e0: 5509 cf3d 46e4 5b3d 1eaa fe3d 93e3 303e
000001f0: 5840 c23c e1f1 193d 80d0 3d3d 68cb be3c
00000200: 70de afbd 1329 96bb 9dd1 d6bd 7b05 8fbe
00000210: 4869 9abe 3112 bfbd 6129 2fbc b851 b5bd
00000220: faf4 c7be 222f 70be 8f80 39be 9326 01bd
00000230: 1f4e 84bd 3ae6 d6bd 3a84 e2bd b3a3 123d
00000240: 7ea8 fdbb 8222 8f3d bbe2 fd3d 60e5 b23d
00000250: dfb4 183e b9cf c73d bf38 2e3e 06b0 a23d
00000260: b013 ae3d 4e6f 0a3c 84c4 c3bc 994e b83d
00000270: 4f0c 2dbe 75f0 31be 1b6e 55be baf8 97bd
00000280: e3c7 8abe cbd5 7fbd b976 f23c bc35 f6bd
00000290: a567 823d 359b 97bb 1f23 0b3e 6f5c 273e
000002a0: f194 97bd 4183 27bd ff40 3e3b 267e 43bd
000002b0: 26d9 31be 24d8 02be b38e b5bd a20c 3dbd
000002c0: a8d2 a73d 84d9 af3d b2b2 20bc 126b 333c
000002d0: 87cf 453d 11cd 883d d221 9f3c 1e7c 403d
000002e0: d526 093d b4f2 e33d 8a7e 51be cce4 96be
000002f0: eba2 75be ba80 adbd 7177 d6be 04c6 5dbe
00000300: 811f 8ebc 3182 9abc 56a9 9abd 1155 24be
00000310: 5c7c 6e3c 32cf f7bc 8898 1dbd e8e0 873a
00000320: 7d8d c43d 2898 4d3e 06d3 f63d 62b7 3f3e
00000330: 8896 703d 4ae8 8d3e 97c1 113e 09c7 c83c
00000340: 8572 b73d 26bc 4f3d 9dc3 ad3d c174 833d
00000350: 499a 4b3e c2b3 913d 51fb d23d 1b24 543d
00000360: e6c4 8d3e 933a 3d3e dbae 933d e602 d63d
00000370: 6629 163d 25a4 c8bd 9150 103d 9c11 17bc
00000380: 3700 6f3c ec5c b63d 5118 1d3e e611 773d
00000390: aed1 193e dcf8 9f3d 5a3b 323e 60a9 d3bd
000003a0: e76b f8bd cdc5 8e3c 9563 abba 777f fdbd
000003b0: 88b4 44be bde3 353e ab07 b43d 9826 483d
000003c0: 0759 2bbe 635e 043e 3132 703e a9a0 5cbd
000003d0: e982 31bc e2b9 82bd 5209 92bc 36e5 45be
000003e0: d385 82bd 88eb a0bc e3c6 523c fd76 c4bd
000003f0: 123a de3d 84ce b4bd 400e ccbb 912f 6f3d

conv3.weight f4 [32, 16, 3, 3]
0.01593612 -0.26582673 0.04871267 0.05056639 0.15243007 0.13136359 0.010393939 0.12884694
0.0808575 -0.06398337 0.0472218 0.032680295 -0.063258104 0.014392534 -0.0075534317 0.003285771
-0.05682642 -0.010041808 -0.17998919 -0.035874233 0.014109654 -0.18064596 0.1319346 0.24965854
0.07160119 0.110086486 0.06574848 -0.07868703 -0.086167075 -0.06905437 -0.17320506 -0.1788581
-0.1894694 -0.054067995 -0.20958085 -0.26123986 -0.06854835 -0.08826898 -0.050070185 0.09263541
0.036732573 0.05755227 0.04271774 0.10279692 0.088531755 -0.05057651 0.019820973 -0.17107734
0.12307674 0.01995856 0.032902386 -0.035308912 -0.18782052 0.059987888 -0.107829906 0.010855424
0.06716613 -0.14361666 -0.05886152 -0.10550939 0.07394369 0.019441864 -0.19984771 -0.047371425
0.0034993154 -0.083765805 0.19923322 0.059580386 -0.15767397 0.04029873 -0.109353326 0.058217183
-0.12032858 -0.06774805 -0.09728735 -0.03798738 0.15143023 0.10379106 -0.23935272 -0.12122574
-0.08908397 0.11196422 0.15481608 0.030167466 0.12179566 -0.012732844 0.24617888 -0.11268885
-0.21417335 0.053435806 0.19584122 0.121521495 -0.05727325 0.013711241 -0.030221514 -0.03669547
-0.09991296 -0.23210905 -0.09281987 -0.084619336 -0.020475943 0.07794292 -0.09435582 -0.0030801094
0.030013436 -0.03616001 0.015048671 0.072575614 -0.0022969006 -0.14065784 -0.11795563 -0.077798255
-0.081394665 -0.008654104 0.06641081 0.049162097 0.025079696 -0.021629771 -0.023516433 -0.098982066
-0.02359166 0.18116994 0.06475014 -0.07361703 0.19018006 0.29945052 -0.1408117 -0.016154138
0.19242714 -0.043545708 0.12869936 0.18789013 -0.020070199 0.060551632 0.031528916 -0.1660651
0.0042840713 0.1521243 0.019849706 0.2905494 0.2302724 -0.004402028 -0.08896529 -0.11583967
0.23351435 0.18198542 0.01467625 0.025344096 0.19581513 0.05316508 -0.110452205 0.10493979
0.15843906 0.18791236 -0.16597661 -0.30220854 0.02475314 -0.0026336657 -0.12821396 -0.009596369
0.108961575 0.017705023 0.13352245 -0.27295497 0.0668242 0.1622316 -0.08795759 -0.14260438
-0.2787177 0.031779177 -0.040319543 0.045829136 -0.11026287 -0.15101765 -0.08142842 -0.10057565
-0.12693936 -0.26614115 -0.19450027 -0.09992686 0.06450187 0.04219968 0.0021532779 -0.0799749
-0.13238311 -0.07213 -0.035027035 -0.15979512 0.01884169 0.026423799 -0.059757985 0.043616988
0.15280163 0.15271467 0.020629257 0.05505977 0.18585154 -0.04287768 0.20119551 0.041105215
-0.06613391 0.10508372 -0.027972315 0.011833536 -0.20362549 -0.0072374716 0.029312171 -0.11070033
-0.17538324 0.18205084 -0.37820816 -0.018552927 0.30002978 0.24510565 0.08399015 0.10178636
-0.09476746 -0.12784106 -0.17297821 -0.26655722 -0.2648519 0.03303877 -0.36656272 -0.1680521
0.026425028 -0.05104429 0.037607282 0.2430813 -0.040263943 0.14616273 0.2734766 -0.036386605
-0.018598815 0.19132902 -0.109470874 -0.06339907 0.15988326 0.08784772 0.14756219 0.10673945
0.19508426 0.17307036 -0.014582073 -0.1255573 -0.13330375 -0.06055496 0.009062591 0.17407498
0.10357092 0.04318946 0.0145661 0.14924516 -0.36411598 -0.30449435 -0.170525 -0.2107244
00000000: 778c 823c 711a 88be f086 473d b41e 4f3d
00000010: a116 1c3e 2d84 063e 574b 2a3c 74f0 033e
00000020: 9e98 a53d b709 83bd a56b 413d c6db 053d
00000030: 778d 81bd aace 6b3c c782 f7bb 1756 573b
00000040: d2c2 68bd 6586 24bc 164f 38be dcf0 12bd
00000050: 2e2c 673c 41fb 38be dd19 073e 7da6 7f3e
00000060: a5a3 923d 0675 e13d 24a7 863d aa26 a1bd
00000070: 5d78 b0bd 616c 8dbd ab5c 31be 9426 37be
00000080: 4404 42be 6776 5dbd 5d9c 56be 3bc1 85be
00000090: 1463 8cbd 5ec6 b4bd 6516 4dbd a2b7 bd3d
000000a0: e574 163d eebb 6b3d ccf8 2e3d 3187 d23d
000000b0: 2350 b53d 5129 4fbd 985f a23c e62e 2fbe
000000c0: a80f fc3d 2280 a33c a7c4 063d 14a0 10bd
000000d0: 0654 40be dcb5 753d edd5 dcbd f3da 313c
000000e0: 658e 893d 3f10 13be c718 71bd 4f15 d8bd
000000f0: ca6f 973d 8b44 9f3c e1a4 4cbe 8a08 42bd
00000100: c554 653b 688d abbd cb03 4c3e 900a 743d
00000110: 4975 21be 4810 253d a3f4 dfbd 2475 6e3d
00000120: d56e f6bd 7dbf 8abd 973e c7bd a898 1bbd
00000130: 8710 1b3e 6890 d43d e118 75be 3345 f8bd
00000140: a871 b6bd 7f4d e53d 1b88 1e3e c321 f73c
00000150: 0170 f93d 6b9d 50bc 5116 7c3e 69c9 e6bd
00000160: 4250 5bbe 81df 5a3d 9a8a 483e 43e0 f83d
00000170: 5b97 6abd 1da5 603c 1c93 f7bc fd4d 16bd
00000180: 2a9f ccbd ffad 6dbe 5818 bebd e74c adbd
00000190: 2abd a7bc 8aa0 9f3d a03d c1bd a9db 49bb
000001a0: bdde f53c 851c 14bd b38e 763c 86a2 943d
000001b0: 9987 16bb 9c08 10be b992 f1bd b154 9fbd
000001c0: 3fb2 a6bd f1c9 0dbc 6402 883d 325e 493d
000001d0: ef73 cd3c eb30 b1bc 89a5 c0bc 1cb7 cabd
000001e0: 4c43 c1bc 9d84 393e b99b 843d 87c4 96bd
000001f0: 90be 423e 9451 993e f130 10be af55 84bc
00000200: 9f0b 453e fc5c 32bd c4c9 033e 4566 403e
00000210: 426a a4bc fd04 783d 7724 013d f80c 2abe
00000220: 6561 8c3b 79c6 1b3e da9b a23c e4c2 943e
00000230: 87cc 6b3e e33e 90bb 6f33 b6bd 593d edbd
00000240: 631e 6f3e 635a 3a3e a774 703c 6c9e cf3c
00000250: c383 483e a0c3 593d c434 e2bd acea d63d
00000260: d93d 223e 196c 403e c6f5 29be 14bb 9abe
00000270: 19c7 ca3c 9499 2cbb 854a 03be 173a 1dbc
00000280: 3f27 df3d 200a 913c 1cba 083e c1c0 8bbe
00000290: 20db 883d 0a20 263e 1c23 b4bd e206 12be
000002a0: 16b4 8ebe e22a 023d 1b26 25bd 55b7 3b3d
000002b0: 80d1 e1bd 5fa4 1abe f2c3 a6bd 9bfa cdbd
000002c0: 64fc 01be a743 88be 142b 47be 74a6 ccbd
000002d0: 8e19 843d 92d9 2c3d 021e 0d3b e1c9 a3bd
000002e0: 708f 07be e5b8 93bd 8278 0fbd 55a1 23be
000002f0: e359 9a3c b976 d83c cac4 74bd baa7 323d
00000300: 0878 1c3e 3c61 1c3e b0fe a83c 5a86 613d
00000310: de4f 3e3e 82a0 2fbd 3206 4e3e f15d 283d
00000320: 3771 87bd 2236 d73d 3226 e5bc 73e1 413c
00000330: 3383 50be 5028 edbb 1420 f03c dbb6 e2bd
00000340: aa97 33be 896b 3a3e 80a4 c1be 4ffc 97bc
00000350: 819d 993e fafc 7a3e 0703 ac3d 5e75 d03d
00000360: 7115 c2bd c4e8 02be 3321 31be 307a 88be
00000370: ab9a 87be a953 073d 1cae bbbe da15 2cbe
00000380: 4d79 d83c d113 51bd 180a 1a3d 4eea 783e
00000390: ceeb 24bd afab 153e 2005 8c3e 1f0a 15bd
000003a0: 8b5c 98bc c1eb 433e 4432 e0bd 5fd7 81bd
000003b0: 70b8 233e 81e9 b33d 8b1a 173e 369a da3d
000003c0: 2bc4 473e 5b39 313e a6e9 6ebc 1892 00be
000003d0: c780 08be 7a08 78bd 437b 143c b640 323e
000003e0: fe1c d43d 6ee7 303d a7a6 6e3c b9d3 183e
000003f0: 696d babe afe6 9bbe 1b9e 2ebe 23c8 57be

fc1.weight f4 [120, 288]
-0.060665004 -0.073641114 -0.06143799 -0.05417741 -0.045198042 0.0084297415 -0.016862094 -0.079029605
0.044085767 0.010516712 0.043775834 -0.041025847 -0.070482075 -0.05684316 -0.066829965 -0.0056614853
-0.09650252 -0.06991441 -0.047499713 -0.029207567 -0.07048066 -0.03510669 0.07166383 -0.0097502675
-0.074744634 -0.009183092 -0.05221487 -0.06959019 0.01337932 -0.07313355 -0.05102771 -0.023386244
0.0007726101 -0.07114154 -0.06347786 0.02766904 -0.0706298 -0.11733628 -0.09112188 -0.104528144
-0.0045060804 -0.033549692 -0.07851204 -0.060631596 0.005910741 0.0545924 -0.08955487 -0.022245867
-0.020657716 -0.004779874 0.024486627 0.004701705 -0.0579795 -0.022082247 0.04372115 -0.020287912
-0.04099212 0.05276269 -0.046823658 0.0036692114 -0.058330465 -0.09463837 -0.027576406 -0.014371727
-0.016371198 -0.052126385 -0.08017112 -0.08955788 -0.106231235 -0.04307625 -0.058711972 -0.042735018
0.049001046 -0.031854227 -0.059157997 -0.075366914 0.009203854 0.03407242 -0.016766671 0.03221067
0.047668535 -0.030826135 0.07318103 -0.008314486 -0.07898271 -0.023127317 -0.046480563 0.009886465
-0.07539138 0.048187625 -0.062345088 -0.0904831 -0.0376677 -0.052108 -0.041672714 -0.10738887
-0.11074822 -0.059823968 -0.029440252 0.09747684 -0.027488066 -0.069922075 -0.05095073 0.047298063
0.009401682 -0.027442731 -0.006311345 -0.008296896 -0.01670116 -0.09138709 -0.0071728546 0.022108587
0.030161314 -0.025048751 -0.022880513 0.020468589 -0.05417903 0.054156855 -0.07360402 0.013273223
-0.08732006 -0.050266325 -0.029080776 -0.028316021 -0.06951712 -0.05704825 0.0072986595 -0.04419746
0.04866594 -0.019739408 -0.069285646 -0.057992 0.03320649 0.027612517 0.0058939448 -0.053161424
0.007015247 -0.0034290086 -0.09167302 -0.0716216 -0.0662978 -0.024552466 -0.052624162 -0.05066039
0.08848535 0.004039267 0.013965351 -0.003844861 -0.009951799 -0.08032751 -0.09936069 -0.08599066
-0.10454983 -0.061466787 -0.083222665 -0.016525513 0.027453408 -0.01781638 -0.044464283 -0.028854866
0.01701947 -0.077162206 -0.028716557 -0.00080978393 -0.068524025 -0.08919248 -0.059907407 0.033496562
-0.020354947 -0.08753449 -0.028933384 -0.03349058 -0.0801451 -0.047300264 -0.069301784 -0.0078988345
-0.047738723 -0.032087 0.07911946 -0.0522015 -0.024385974 -0.061816834 -0.06640726 0.017726364
-0.07010129 0.022112139 -0.01667862 0.005884117 -0.0052007143 0.03231449 0.017534291 -0.030507008
-0.038272906 0.045473754 -0.06483162 -0.004528465 -0.0016982767 0.028224763 -0.10252883 -0.014215057
0.0020522515 -0.01528817 -0.058462486 -0.091031305 0.02790706 0.009411968 -0.0848363 -0.05555529
-0.080395676 -0.052190036 -0.062269874 -0.02005083 -0.029704802 0.046513155 0.009322714 0.05974485
-0.070034936 -0.018878838 -0.042738587 -0.059835404 -0.071918435 0.025150094 -0.074054584 -0.0029770406
-0.06878898 0.04676004 0.014369483 0.004832142 -0.025323622 -0.07540054 -0.022115348 -0.0048565813
0.033164486 -0.04217578 -0.00492254 0.042446863 0.014407038 -0.08531589 -0.033344906 -0.054984514
-0.05455097 0.05514303 0.07780479 0.027759397 0.021115776 -0.067285135 -0.051156484 0.017135361
0.023578973 -0.06754165 0.027965508 -0.0061466433 -0.04546631 -0.012748824 -0.08723745 -0.036176365
00000000: de7b 78bd 27d1 96bd 67a6 7bbd 22e9 5dbd
00000010: 9521 39bd e61c 0a3c 6022 8abc 46da a1bd
00000020: 4793 343d 4a4e 2c3c 4a4e 333d b80a 28bd
00000030: e858 90bd 60d4 68bd 26de 88bd fb83 b9bb
00000040: 1da3 c5bd 492f 8fbd 0f8f 42bd b544 efbc
00000050: 2a58 90bd 08cc 0fbd 7cc4 923d 96bf 1fbc
00000060: b713 99bd ae74 16bc 42df 55bd 4d85 8ebd
00000070: ef34 5b3c 0bc7 95bd 6f02 51bd 8294 bfbc
00000080: fc88 4a3a a8b2 91bd ae00 82bd 2faa e23c
00000090: 5ba6 90bd 014e f0bd 1c9e babd da12 d6bd
000000a0: bea7 93bb 676b 09bd ecca a0bd d658 78bd
000000b0: e4ae c13b 489c 5f3d 8b68 b7bd f73c b6bc
000000c0: 5f3a a9bc 7da0 9cbb 2e98 c83c c310 9a3b
000000d0: ea7b 6dbd d4e5 b4bc f314 333d d632 a6bc
000000e0: 5ae7 27bd b11d 583d 2aca 3fbd 2777 703b
000000f0: edeb 6ebd c3d1 c1bd eae7 e1bc 6477 6bbc
00000100: e41c 86bc 7a82 55bd c230 a4bd 1f6a b7bd
00000110: c38f d9bd b970 30bd f77b 70bd ea0a 2fbd
00000120: 52b5 483d 9479 02bd a84f 72bd f859 9abd
00000130: c3cb 163c 868f 0b3d 425a 89bc 56ef 033d
00000140: 1540 433d 1787 fcbc f0df 953d 7b39 08bc
00000150: b0c1 a1bd 8075 bdbc 6762 3ebd d7fa 213c
00000160: cc66 9abd 6360 453d 905d 7fbd 344f b9bd
00000170: 7249 1abd 336f 55bd 02b1 2abd b2ee dbbd
00000180: f6cf e2bd fa09 75bd af2c f1bc f0a1 c73d
00000190: a72e e1bc 4e33 8fbd b6b1 50bd 9dbb 413d
000001a0: 8309 1a3c 94cf e0bc 66cf cebb b4ef 07bc
000001b0: dfd0 88bc 2829 bbbd 440a ebbb 111d b53c
000001c0: dc14 f73c 0a33 cdbc ea6f bbbc bead a73c
000001d0: d5ea 5dbd 94d3 5d3d b4bd 96bd ef77 593c
000001e0: dcd4 b2bd 10e4 4dbd cf3a eebc 00f7 e7bc
000001f0: fe5e 8ebd 6dab 69bd 9829 ef3b 6508 35bd
00000200: f055 473d 8ab4 a1bc a2e5 8dbd 0589 6dbd
00000210: 8703 083d a533 e23c fe21 c13b cbbf 59bd
00000220: 28e0 e53b 38b9 60bb 10bf bbbd 58ae 92bd
00000230: 24c7 87bd 4122 c9bc 6f8c 57bd 4581 4fbd
00000240: cf37 b53d d45b 843b edce 643c 10fa 7bbb
00000250: df0c 23bc c082 a4bd 9e7d cbbd df1b b0bd
00000260: 391e d6bd 99c4 7bbd a570 aabd 8360 87bc
00000270: f8e5 e03c a8f3 91bc 2e20 36bd 0a61 ecbc
00000280: 6a6c 8b3c 3807 9ebd fc3e ebbc ae47 54ba
00000290: 5356 8cbd 8caa b6bd 7861 75bd b133 093d
000002a0: 6bbf a6bc 4845 b3bd b405 edbc 6b2d 09bd
000002b0: 1d23 a4bd ecbd 41bd 18ee 8dbd 1d6a 01bc
000002c0: ae89 43bd a86d 03bd 6209 a23d 3dd1 55bd
000002d0: 18c5 c7bc a633 7dbd 8800 88bd e136 913c
000002e0: 4491 8fbd 8424 b53c 9aa1 88bc 8dcf c03b
000002f0: c16a aabb 335c 043d 13a4 8f3c d5e9 f9bc
00000300: 0dc4 1cbd b042 3a3d 71c6 84bd 8563 94bb
00000310: b698 deba 9e37 e73c a3fa d1bd 45e6 68bc
00000320: 117f 063b 3c7b 7abc 5c76 6fbd 9f6e babd
00000330: 599d e43c a834 1a3c a7be adbd f28d 63bd
00000340: 7da6 a4bd 38c5 55bd b20e 7fbd a341 a4bc
00000350: 7c57 f3bc 9484 3e3d 4cbe 183c 04b7 743d
00000360: 7a6e 8fbd cba7 9abc a80e 2fbd f815 75bd
00000370: f949 93bd 9207 ce3c eea9 97bd 741a 43bb
00000380: 3de1 8cbd 7587 3f3d fb6d 6b3c f256 9e3b
00000390: 7c73 cfbc 996b 9abd 3f2b b5bc f523 9fbb
000003a0: 7cd7 073d 83c0 2cbd 424d a1bb c3dc 2d3d
000003b0: 7f0b 6c3c 19ba aebd ab94 08bd 7137 61bd
000003c0: d770 5fbd a8dd 613d 1e58 9f3d ad67 e33c
000003d0: fefa ac3c cacc 89bd 7689 51bd 755f 8c3c
000003e0: b128 c13c 4753 8abd ec17 e53c c869 c9bb
000003f0: e23a 3abd 72e0 50bc 8ca9 b2bd ab2d 14bd

fc2.weight f4 [120, 120]
-0.017028803 0.1967862 0.11663188 0.09282418 0.12379452 0.01844716 0.03972525 0.46128622
-0.037869975 0.32149535 -0.05470685 -0.008046356 0.25719926 0.06279942 0.29550067 -0.22453693
-0.35509846 -0.1828463 -0.03207857 -0.37686324 0.14873098 0.15619333 0.18308079 0.08074224
0.20669027 -0.5285581 -0.48457864 0.08469502 -0.0881663 0.14238034 -0.14009236 -0.022599505
0.014945235 -0.48454517 -0.039628886 -0.24264064 -0.22163421 0.025326798 -0.07528891 -0.4983071
-0.12985206 0.11093652 0.020803656 0.06075685 0.21152912 0.036937945 -0.46458414 -0.05916443
-0.40439305 0.2540819 -0.37162128 0.05786466 0.05613928 -0.13019222 0.20062637 -0.030140016
-0.015136599 0.061498452 0.0024478144 0.3721834 0.19091623 -0.235267 -0.055635776 -0.38612494
-0.17731586 0.016607635 0.10833082 0.15261573 -0.07752435 0.07426398 -0.08759465 0.037906956
0.21537942 -0.05833139 0.35630324 0.03720992 0.019029854 -0.51927024 -0.08646471 0.12942861
0.09723099 0.108902104 -0.25535157 -0.08984774 -0.24382566 0.08457802 -0.17272878 0.05251564
0.21234052 -0.40252456 0.015006755 0.086562686 0.29625943 -0.027353324 -0.07419752 -0.06497314
-0.38045657 0.029067203 0.23360354 -0.34856564 -0.0285767 0.12538654 0.0044004773 0.16269319
0.039377782 -0.1786117 -0.11200969 -0.044196174 0.09115752 -0.037183743 -0.01049841 -0.019154714
-0.015162957 -0.005102721 0.08229734 0.08848627 0.36690336 -0.048720345 -0.046077933 -0.05345829
0.13954073 0.051246703 0.08546597 0.032639336 0.058626615 -0.058293916 -0.49479124 -0.5059162
-0.59781605 -0.36833653 0.2519761 0.0066380836 0.025564497 0.0068536424 0.038678236 0.11819707
0.047296543 0.12680928 -0.121107 -0.12875248 0.0088058375 0.0201444 0.041995663 -0.50344765
0.17755704 0.039679512 -0.28643915 -0.021600453 -0.0501751 0.088791765 0.17928332 -0.032588173
0.06749425 -0.081666 0.13406774 -0.080740444 0.0017667228 0.020534668 -0.28116837 0.03369206
0.021614203 0.0031317878 -0.0068505076 0.019993223 0.09474479 -0.12999836 0.041928306 0.06741817
-0.04651409 0.079567105 -0.046806563 -0.53521585 0.16866109 0.20245717 -0.039385673 0.08027013
-0.04527321 -0.6317149 0.008551525 -0.19237882 0.033194557 -0.0073085576 0.045106813 0.052430764
-0.073046364 0.08689509 0.14990136 -0.30496186 0.12181205 0.07887169 -0.10886244 0.07870227
-0.018203998 -0.19025008 -0.11782011 -1.9856712e-05 0.018479941 0.098908275 0.06493775 -0.019456146
-0.37603948 0.021796023 -0.15463221 -0.022208882 -0.14975531 -0.023605578 0.0044616237 0.09354368
0.020765698 -0.063707694 0.053030968 -0.52659017 -0.38678297 0.0020933775 0.09366174 0.028452333
-0.056812312 0.121064395 0.038361706 -0.1297712 0.011028748 -0.0011664885 0.11132297 0.06918314
0.08177163 -0.021676743 0.05471485 0.052080907 0.031974357 -0.018998072 -0.5068128 0.032566667
0.008676204 -0.26502427 0.04610949 0.17618546 -0.33646125 -0.073887974 -0.039732937 -0.0008672248
0.015191382 -0.29201588 0.007485623 -0.15739003 0.062792405 0.027354611 0.13436835 -0.11164416
0.13456444 -0.109976925 -0.19660762 -0.061795454 0.107719354 0.06212297 -0.21202333 -0.22459657
00000000: fd7f 8bbc 5282 493e b2dc ee3d 9b1a be3d
00000010: fb87 fd3d 801e 973c f2b6 223d b52d ec3e
00000020: 8c1d 1bbd 0a9b a43e 4a14 60bd ddd4 03bc
00000030: 9faf 833e fb9c 803d dd4b 973e 02ed 65be
00000040: 77cf b5be 0f3c 3bbe d264 03bd 38f4 c0be
00000050: ef4c 183e 25f1 1f3e 8879 3b3e 305c a53d
00000060: 9da6 533e 954f 07bf b11a f8be 9574 ad3d
00000070: 8890 b4bd 27cc 113e 5f74 0fbe 9922 b9bc
00000080: dcdc 743c 4e16 f8be e651 22bd ca76 78be
00000090: 14f4 62be 257a cf3c 1231 9abd 1c22 ffbe
000000a0: f0f7 04be b032 e33d 6e6c aa3c 2ddc 783d
000000b0: 179b 583e 3e4c 173d f9dd edbe 6756 72bd
000000c0: 9b0c cfbe 0617 823e 2545 bebe 7e03 6d3d
000000d0: 4df2 653d 1c51 05be 0071 4d3e 32e8 f6bc
000000e0: 7fff 77bc cde5 7b3d 836b 203b d38e be3e
000000f0: 8b7f 433e d5e9 70be 57e2 63bd 2bb2 c5be
00000100: 4a92 35be bc0c 883c 8ddc dd3d 4c47 1c3e
00000110: 16c5 9ebd b717 983d d364 b3bd 5344 1b3d
00000120: 6c8c 5c3e e5ec 6ebd 616d b63e 6e69 183d
00000130: 7fe4 9b3c e5ee 04bf 6914 b1bd ef88 043e
00000140: 0b21 c73d 1108 df3d 71bd 82be 1802 b8bd
00000150: 6fad 79be 3e37 ad3d d0df 30be a41a 573d
00000160: cb6f 593e b317 cebe e4de 753c c747 b13d
00000170: 51af 973e 1414 e0bc dff4 97bd a310 85bd
00000180: 34cb c2be 581e ee3c c435 6f3e 3277 b2be
00000190: af19 eabc 5465 003e e131 903b 0b99 263e
000001a0: 994a 213d fce5 36be 5665 e5bd 0c07 35bd
000001b0: cbb0 ba3d fb4d 18bd 8601 2cbc 59ea 9cbc
000001c0: 0d6e 78bc ba34 a7bb 828b a83d 4a38 b53d
000001d0: c2da bb3e fc8e 47bd 37bc 3cbd 14f7 5abd
000001e0: c4e3 0e3e 10e8 513d c808 af3d d3b0 053d
000001f0: 7622 703d 9ac5 6ebd 4755 fdbe b983 01bf
00000200: 790a 19bf 9b96 bcbe 0303 813e 4884 d93b
00000210: a36c d13c 8594 e03b 126d 1e3d 4e11 f23d
00000220: 05ba 413d 4bda 013e f206 f8bd b1d7 03be
00000230: 5c46 103c de05 a53c a503 2c3d f2e1 00bf
00000240: 83d1 353e fc86 223d 27a8 92be 6ff3 b0bc
00000250: 6884 4dbd 75d8 b53d 0c96 373e 2d7b 05bd
00000260: 6d3a 8a3d 8140 a7bd 0e49 093e 3f5b a5bd
00000270: 6191 e73a 5238 a83c 4df5 8fbe af00 0a3d
00000280: 4510 b13c ae3e 4d3b 397a e0bb d4c8 a33c
00000290: 8e09 c23d 4a1e 05be 04bd 2b3d 8a12 8a3d
000002a0: 8f85 3ebd 14f4 a23d 3db8 3fbd e803 09bf
000002b0: 7eb5 2c3e ef50 4f3e df52 21bd aa64 a43d
000002c0: 6770 39bd 11b8 21bf b21b 0c3c f4fe 44be
000002d0: 04f7 073d a07c efbb ecc1 383d a4c1 563d
000002e0: 5599 95bd 0ef6 b13d be7f 193e f623 9cbe
000002f0: 9978 f93d 7b87 a13d 45f3 debd a82e a13d
00000300: 8d20 95bc ebd0 42be ab4b f1bd f791 a6b7
00000310: 3f63 973c 6c90 ca3d 15fe 843d 7f62 9fbc
00000320: 3f88 c0be 938d b23c e857 1ebe 67ef b5bc
00000330: 7559 19be 7c60 c1bc d032 923b d493 bf3d
00000340: d31c aa3c 2e79 82bd 0037 593d 9dce 06bf
00000350: 6b08 c6be 0c31 093b bad1 bf3d de14 e93c
00000360: 07b4 68bd 9cf0 f73d 2a21 1d3d bee2 04be
00000370: ecb1 343c dce4 98ba 4cfd e33d e4af 8d3d
00000380: e277 a73d 6d93 b1bc ae1c 603d ca52 553d
00000390: 8bf7 023d d8a1 9bbc 7cbe 01bf a064 053d
000003a0: a326 0e3c 43b1 87be 4edd 3c3d f669 343e
000003b0: a644 acbe 9452 97bd 01bf 22bd 7956 63ba
000003c0: 46e5 783c 1b83 95be f549 f53b da2a 21be
000003d0: 4e99 803d c716 e03c db97 093e b1a5 e4bd
000003e0: 43cb 093e 953b e1bd 8253 49be 3b1d 7dbd
000003f0: f79b dc3d a874 7e3d a51c 59be a5fc 65be

fc3.weight f4 [84, 120]
0.14327565 -0.032839026 0.05395566 0.097404346 0.05314585 -0.58151996 0.09293738 0.19347677
-0.24408828 0.09242853 -0.28871584 -0.47834393 0.14935368 -0.09042991 0.037030213 0.16910818
0.093510225 -0.020719454 -0.1804541 -0.009364583 0.039433245 0.02093336 0.066601545 -0.32388848
-0.38430643 -0.1517826 -0.13871591 0.038679972 -0.12962121 -0.09328816 -0.7849432 -0.096491605
0.12350037 0.12366021 0.032829978 0.102387756 0.07798178 0.009248888 0.115460485 0.17470346
-0.022846118 -0.77202564 0.0518447 0.11599453 0.015326021 0.11298206 0.08012966 0.07021617
-0.25430548 0.0037726588 -0.03662921 -0.59292203 0.12279103 0.07863614 -0.46454415 -0.110465474
-0.5617991 -0.629461 0.0104823075 -0.24450664 -0.57079464 -0.2192019 -0.19603798 0.05700698
0.085146114 -0.4975035 0.07999483 -0.18876034 0.13662706 -0.4162872 -0.60837513 0.093769476
0.030618822 -0.16409792 -0.008879417 -0.046321947 0.0038289882 0.1420908 0.065400794 0.07771515
0.15407398 0.1948296 0.11342473 0.056616735 0.13371776 -0.008631313 -0.004063047 0.08097722
-0.078368224 0.015458761 0.17057097 0.0999656 0.067919604 0.041290812 0.095565125 0.15579854
0.087495364 0.15788719 -0.20482248 0.078782134 0.25584286 -0.292307 0.12798145 -0.077486925
0.14535713 -0.24677375 -0.3055627 -0.19456522 0.09515243 -0.16260312 0.0013005966 0.103491664
0.01694915 -0.17510127 -0.012891225 0.09718649 0.20004708 0.011446833 -0.28562486 0.20944844
0.06761657 -0.54173887 0.008569429 0.19342665 0.049332246 0.08631134 -0.38641456 0.08483189
0.077849425 0.045316264 -0.11412702 0.018219333 -0.05004355 0.2156311 -0.36311752 -0.19486284
-0.046171263 0.11466095 0.08681975 0.13964088 -0.007343779 0.075658925 -0.072937 0.22363676
0.12455203 -0.01786664 -0.20171687 -0.3304 -0.2559189 -0.168018 -0.1471865 -0.0035292958
-0.0643971 -0.22471707 0.1226187 0.06471283 -0.08747903 0.048669912 -0.11888462 -0.14180659
0.080612265 -0.08936865 0.1560186 0.15589504 0.050876066 0.1321348 0.03218136 0.07712401
0.13621612 -0.34496006 -0.018610114 -0.11591972 -0.29452226 -0.085960515 0.07871662 0.11738409
-0.0092638135 -0.20101994 0.021109937 -0.005677471 -0.19419235 0.103731364 0.028181594 0.048169665
-0.48672926 0.04766934 0.15391293 0.086652026 -0.03429266 0.1463864 -0.21716847 0.105417624
0.23687224 -0.15109526 -0.063630365 0.060269456 -0.20344894 -0.013416926 0.19229567 -0.084303625
0.18211567 0.18534608 0.047612365 -0.49129745 0.15584652 0.036644682 0.12174036 0.08162374
-0.027984446 -0.09155681 -0.007966524 0.14697568 0.07930602 0.118952945 0.030204546 -0.29239288
-0.06813122 0.13441913 0.07255889 0.07454271 0.16677037 -0.1926998 0.123469785 0.21967225
0.13602525 0.08128655 -0.23292266 -0.4384169 -0.35791877 0.15080436 -0.46150813 0.054815955
-0.017900005 0.16017732 -0.020964699 -0.055919275 0.026398323 -0.4183002 0.082815215 -0.016198976
0.07264382 0.039935783 0.028340861 -0.061030667 -0.053114027 -0.4857362 0.06557954 0.13224171
-0.4700517 0.098834336 -0.044250563 -0.06112825 0.05670996 -0.4682722 0.081252456 0.25259086
00000000: dab6 123e 3782 06bd 9c00 5d3d ee7b c73d
00000010: 76af 593d 7ede 14bf f455 be3d c61e 463e
00000020: 47f2 79be 2b4b bd3d 90d2 93be 7fe9 f4be
00000030: 2cf0 183e 5133 b9bd feac 173d b22a 2d3e
00000040: 4a82 bf3d d8bb a9bc f6c8 38be e86d 19bc
00000050: c184 213d 707c ab3c 6466 883d b6d4 a5be
00000060: d0c3 c4be e66c 1bbe 8b0b 0ebe e46e 1e3d
00000070: 6cbb 04be dd0d bfbd 0af2 48bf 649d c5bd
00000080: c3ed fc3d 9041 fd3d ba78 063d acb0 d13d
00000090: e9b4 9f3d a688 173c 8c76 ec3d 77e5 323e
000000a0: c827 bbbc 79a3 45bf 1c5b 543d 8a8e ed3d
000000b0: fe19 7b3c 2363 e73d 051b a43d 7fcd 8f3d
000000c0: 5434 82be b63e 773b 8308 16bd bdc9 17bf
000000d0: dd79 fb3d fc0b a13d bbd8 edbe b93b e2bd
000000e0: 11d2 0fbf 5b24 21bf fcbd 2b3c f35f 7abe
000000f0: 991f 12bf 7676 60be 2ebe 48be 2780 693d
00000100: 1661 ae3d c7b8 febe 54d4 a33d 644a 41be
00000110: f7e7 0b3e 9923 d5be 79be 1bbf 360a c03d
00000120: 53d4 fa3c 4909 28be f97a 11bc 15bc 3dbd
00000130: c3ef 7a3b 4080 113e daf0 853d 1f29 9f3d
00000140: 92c5 1d3e 6981 473e 3a4b e83d f3e6 673d
00000150: 4fed 083e 5a6a 0dbc 4f23 85bb 62d7 a53d
00000160: 857f a0bd be46 7d3c 28aa 2e3e c4ba cc3d
00000170: 6f19 8b3d 8e20 293d a6b7 c33d a789 1f3e
00000180: c530 b33d 2ead 213e fcbc 51be 8758 a13d
00000190: d6fd 823e 43a9 95be 920d 033e 77b1 9ebd
000001a0: 80d8 143e 42b2 7cbe b772 9cbe 1b3c 47be
000001b0: 47df c23d 6f81 26be c878 aa3a 70f3 d33d
000001c0: f2d8 8a3c bf4d 33be b735 53bc b609 c73d
000001d0: 24d9 4c3e 7f8b 3b3c 6c3d 92be a779 563e
000001e0: 8e7a 8a3d 66af 0abf ca66 0c3c a311 463e
000001f0: 9c10 4a3d 00c4 b03d 21d8 c5be 58bc ad3d
00000200: 856f 9f3d 8c9d 393d 6dbb e9bd b640 953c
00000210: 77fa 4cbd 66ce 5c3e 8aea b9be 208a 47be
00000220: 141e 3dbd 5cd3 ea3d 8ece b13d 05fe 0e3e
00000230: 15a4 f0bb 11f3 9a3d fe5f 95bd 0901 653e
00000240: 2215 ff3d 0f5d 92bc de8e 4ebe 302a a9be
00000250: cd07 83be e90c 2cbe 0fb8 16be c24b 67bb
00000260: a0e2 83bd 3b1c 66be 831f fb3d 2988 843d
00000270: 3528 b3bd 1a5a 473d c879 f3bd bf35 11be
00000280: 0b18 a53d e906 b7bd 57c3 1f3e f3a2 1f3e
00000290: 6c63 503d 584e 073e 9ad0 033d 31f3 9d3d
000002a0: 3d7c 0b3e 9b9e b0be 3d74 98bc 5167 edbd
000002b0: 9fcb 96be 110c b0bd 2e36 a13d 1267 f03d
000002c0: 40c7 17bc 2cd8 4dbe bfee ac3c 140a babb
000002d0: 5cda 46be 1c71 d43d 16dd e63c 8e4d 453d
000002e0: 9434 f9be ed40 433d 5a9b 1d3e 9e76 b13d
000002f0: 7676 0cbd 51e6 153e 6961 5ebe 32e5 d73d
00000300: a38e 723e b7b8 1abe a350 82bd 1bdd 763d
00000310: eb54 50be abd2 5bbc 28e9 443e 61a7 acbd
00000320: 887c 3a3e 5dcb 3d3e 2f05 433d 578b fbbe
00000330: 3b96 1f3e bc18 163d 0353 f93d 592a a73d
00000340: a33f e5bc 2382 bbbd 0686 02bc cb80 163e
00000350: 326b a23d 9a9d f33d 866f f73c 85b4 95be
00000360: 6288 8bbd 2ba5 093e c199 943d d9a9 983d
00000370: dac5 2a3e 1953 45be badd fc3d c3f1 603e
00000380: 344a 0b3e 9079 a63d 4783 6ebe 2e78 e0be
00000390: 2141 b7be 756c 1a3e cb4a ecbe b286 603d
000003a0: 08a3 92bc 8605 243e 29be abbc 9c0b 65bd
000003b0: 4c41 d83c 722b d6be 069b a93d b7b3 84bc
000003c0: 48c6 943d b493 233d 182b e83c 4bfb 79bd
000003d0: 188e 59bd 6ab2 f8be 914e 863d 5f6a 073e
000003e0: 9eaa f0be a869 ca3d 1440 35bd 9e61 7abd
000003f0: b448 683d 60c1 efbe b067 a63d 9753 813e

fc4.weight f4 [10, 84]
-0.0408059 0.12247187 -0.17747238 -0.22555871 0.022723418 -0.17275414 -0.2726629 -0.37329054
-0.049581468 0.06453343 -0.19801292 -0.15545405 0.05490455 -0.086327784 0.24506925 -0.1262754
0.43052626 -0.18000646 0.11086071 0.12765482 0.081013225 -0.081858315 -0.040653314 0.076684505
-0.12022408 0.0783626 -0.16677158 0.034538735 0.0911188 0.07630503 -0.16157298 -0.04350781
0.01731689 -0.20805141 0.0014054162 -0.25381193 -0.08639628 -0.038586613 0.115620546 0.04563718
0.10592582 0.05113392 -0.074504286 -0.08775819 -0.22297399 0.060045686 -0.02064227 -0.11903456
-0.09387712 -0.029360954 0.18818103 0.09645651 -0.0122273415 0.27997312 -0.17715976 0.0130645
-0.07959355 0.1526345 0.059539463 0.055675957 -0.2539887 0.08844563 -0.13993831 0.18129888
0.09819876 -0.07233052 -0.08847525 0.061136123 -0.21405214 0.1057202 0.20374939 -0.21660955
-0.20692603 -0.04669193 0.075002536 0.056475423 0.020928552 -0.24617316 0.11880364 -0.1497297
0.09744621 0.01587656 -0.18988766 0.016070846 0.20557864 -0.31032848 0.25602826 0.09254492
-0.11006072 -0.062276814 0.08130821 0.0068357256 -0.0021300053 -0.2386964 -0.012207459 -0.08294388
-0.011826766 -0.04170448 -0.36353654 0.108690396 -0.24290076 -0.041009486 -0.10728231 -0.21633479
0.11475768 0.15267617 -0.26038164 -0.2583455 -0.21822196 -0.2714783 0.12826853 -0.13845928
0.23051053 -0.49052763 -0.17068623 0.028425992 -0.2647735 0.12544861 -0.02681556 0.116728656
-0.03564157 0.0059135067 -0.06726649 -0.076611266 -0.110526994 -0.12982242 0.2676796 0.056556195
-0.07948459 -0.11901946 -0.12920383 -0.017571345 0.18443301 0.042372398 -0.005430407 0.050030604
0.24652547 -0.18752347 0.19195862 0.09745657 0.13390955 -0.20189697 -0.088536166 0.47240886
-0.06821103 0.007345652 -0.14195332 0.016336085 0.02170828 -0.03746028 -0.30996877 -0.19195458
-0.25056896 -0.065944575 -0.20944181 0.1716062 0.09756523 0.044235807 0.057283964 -0.19650991
-0.017141314 0.1609626 0.45235968 0.17085214 0.23402977 0.10290949 0.079414085 0.048904616
0.09803868 -0.03718075 0.10059052 -0.094388254 -0.22008495 -0.1337725 0.10556247 0.0660475
0.11847521 -0.12779057 -0.16751988 -0.01586802 -0.16160463 0.17875557 -0.24965109 -0.058559895
0.10181826 0.12997772 0.16056973 0.018923184 0.23004335 -0.29923832 0.18516159 -0.07379485
0.031777468 0.14576311 0.10850966 -0.15843628 -0.23572493 -0.34290755 -0.05476348 -0.13731377
0.21460193 -0.1751615 -0.0030229078 -0.30062398 0.015041079 -0.07312814 0.06057836 0.13728641
0.015050572 -0.09248785 -0.1356559 0.2191208 -0.28926533 -0.22894758 0.009639835 0.17121668
-0.04883115 0.19351715 -0.10020811 -0.088382035 -0.23364311 0.29078612 -0.29333407 0.09646533
-0.2746972 0.3359488 -0.04643658 -0.23385568 0.01585854 0.070752114 -0.054563016 -0.8623898
-0.0780363 0.10232123 -0.15491365 -0.026088903 -0.00905601 0.05519139 -0.1171891 -0.20151733
-0.10542461 -0.058888305 0.20232712 0.10002436 -0.21685863 -0.23868142 -0.09638082 0.19223075
-0.23676302 -0.16065782 0.29961258 0.04313626 0.059496563 -0.083483085 0.09112164 -0.20382951
00000000: 1624 27bd 88d2 fa3d 52bb 35be ddf8 66be
00000010: 7626 ba3c 76e6 30be 799a 8bbe f01f bfbe
00000020: f015 4bbd 1a2a 843d e6c3 4abe 592f 1fbe
00000030: 98e3 603d 9fcc b0bd 6ff3 7a3e 574e 01be
00000040: f06d dc3e 9d53 38be f10a e33d f2b7 023e
00000050: 43ea a53d 55a5 a7bd 1784 26bd c40c 9d3d
00000060: 0b38 f6bd 927c a03d 2bc6 2abe 7d78 0d3d
00000070: 7e9c ba3d d045 9c3d 6373 25be 3f35 32bd
00000080: 27dc 8d3c 6e0b 55be f135 b83a a3f3 81be
00000090: 88f0 b0bd ff0c 1ebd 77ca ec3d 0dee 3a3d
000000a0: a3ef d83d cd71 513d b495 98bd 91ba b3bd
000000b0: 4b53 64be 77f2 753d fa19 a9bc 64c8 f3bd
000000c0: a642 c0bd 6286 f0bc 87b2 403e fe8a c53d
000000d0: 3055 48bc a358 8f3e 5e69 35be 7c0c 563c
000000e0: f101 a3bd 384c 1c3e a7df 733d 790c 643d
000000f0: cf0a 82be fc22 b53d fd4b 0fbe 6aa6 393e
00000100: 6e1c c93d 0622 94bd 8332 b5bd df69 7a3d
00000110: 7c30 5bbe d583 d83d aea3 503e e5ce 5dbe
00000120: 6be4 53be 0a40 3fbd ee9a 993d c652 673d
00000130: 5b72 ab3c d114 7cbe 534f f33d be52 19be
00000140: e191 c73d 8f0f 823c e971 42be 02a7 833c
00000150: 3583 523e 60e3 9ebe 2316 833e 3188 bd3d
00000160: 8467 e1bd f915 7fbd eb84 a63d 39fe df3b
00000170: 8f97 0bbb d46c 74be cb01 48bc 7bde a9bd
00000180: 0dc5 41bc 51d2 2abd 7621 babe 1299 de3d
00000190: faba 78be 90f9 27bd d4b6 dbbd de86 5dbe
000001a0: 1306 eb3d 2457 1c3e be50 85be dd45 84be
000001b0: 9475 5fbe 34ff 8abe d358 033e 45c8 0dbe
000001c0: f40a 6c3e 7026 fbbe 5fc8 2ebe a0dd e83c
000001d0: 6490 87be 9a75 003e 4eac dbbc 6f0f ef3d
000001e0: e5fc 11bd 17c6 c13b 03c3 89bd 5ee6 9cbd
000001f0: fa5b e2bd 2bf0 04be 4d0d 893e 78a7 673d
00000200: d1c8 a2bd 7ac0 f3bd 024e 04be c8f1 8fbc
00000210: 02dc 3c3e ae8e 2d3d 8ef1 b1bb e4ec 4c3d
00000220: 2c71 7c3e 2706 40be cd90 443e 4f97 c73d
00000230: 961f 093e 14be 4ebe 7352 b5bd 93df f13e
00000240: 39b2 8bbd ccb3 f03b 365c 11be 41d3 853c
00000250: 90d5 b13c f36f 19bd 3ab4 9ebe be8f 44be
00000260: 934a 80be f30d 87bd ea77 56be 89b9 2f3e
00000270: 48d0 c73d 9b30 353d 97a2 6a3d e539 49be
00000280: f16b 8cbc 61d3 243e b09b e73e ddf3 2e3e
00000290: 80a5 6f3e 36c2 d23d daa3 a23d 3550 483d
000002a0: 81c8 c83d d84a 18bd 6702 ce3d a14e c1bd
000002b0: f35d 61be a9fb 08be 2331 d83d e943 873d
000002c0: 22a3 f23d 88db 02be 558a 2bbe a6fd 81bc
000002d0: af7b 25be b30b 373e 89a4 7fbe 80dc 6fbd
000002e0: 1886 d03d e118 053e 646c 243e cb04 9b3c
000002f0: 7c90 6b3e c435 99be 009b 3d3e c121 97bd
00000300: 1729 023d ed42 153e 503a de3d 1f3d 22be
00000310: e061 71be 9491 afbe ac4f 60bd fb9b 0cbe
00000320: 9cc0 5b3e 895d 33be fa1b 46bb 63eb 99be
00000330: dc6e 763c 35c4 95bd 0421 783d cf94 0c3e
00000340: ad96 763c 456a bdbd 61e9 0abe 3461 603e
00000350: 961a 94be 3c71 6abe 66f0 1d3c 6d53 2f3e
00000360: 2c03 48bd 5c29 463e e939 cdbd a401 b5bd
00000370: 2440 6fbe ebe1 943e e22f 96be 9d8f c53d
00000380: 1da5 8cbe 7b01 ac3e 4934 3ebd dd77 6fbe
00000390: c5e9 813c 7ce6 903d 787d 5fbd 94c5 5cbf
000003a0: 7fd1 9fbd cb8d d13d afa1 1ebe 65b8 d5bc
000003b0: a95f 14bc 5e10 623d d700 f0bd 8f5a 4ebe
000003c0: dce8 d7bd dd34 71bd d72e 4f3e 92d9 cc3d
000003d0: 3010 5ebe e768 74be 4f63 c5bd 23d8 443e
000003e0: 0172 72be 7c83 24be d266 993e a6af 303d
000003f0: abb2 733d 2ef9 aabd fb9d ba3d afb8 50be
