Code/CNN/Backup/best_student.pth (torch, 274566 bytes, 14 tensors)

conv1.weight f4 [6, 1, 5, 5]
000000 c7 8b ad bc 54 8c 46 3d ba b2 e0 bd bf 09 44 3e
       -0.021184815 0.04847367 -0.109715894 0.19144343
000010 8f 67 05 be 69 27 62 bc 5c 22 9a 3d 49 16 2e be
       -0.13027786 -0.013803341 0.07526085 -0.17000689
000020 ed 8e 0c 3e 58 19 ff bb 52 ea ef bc 70 05 07 3d
       0.13726397 -0.0077850036 -0.029286537 0.03296417
000030 a5 a4 e2 be ed 61 7f 3e a2 7d 23 3d a0 ec 46 3d
       -0.4426624 0.249397 0.039914735 0.048565507
000040 1c 9e fb bd 55 f0 e6 be e6 93 c8 3e 68 83 8d 3e
       -0.12286016 -0.45105234 0.39175338 0.27639318
000050 fa 68 f8 bc 57 7a 09 bd 60 e1 96 be 00 29 83 3e
       -0.030323494 -0.033563938 -0.29468822 0.25617218
000060 2f 7b d1 3d 62 f6 20 bb c4 71 5d be bc 49 25 3d
       0.102285735 -0.0024560918 -0.2162543 0.04035352
000070 ad 36 49 bd e5 f6 a3 3d 27 87 5b be 55 6f 6b 3d
       -0.04912441 0.08006076 -0.21438275 0.05747922
000080 19 52 35 bc ca c6 b2 bd 3c 81 97 ba 26 23 de 3c
       -0.011066937 -0.08729322 -0.0011558901 0.02711637
000090 4b 98 28 be b9 c8 cb 3c 49 89 0f be 53 f0 f5 bd
       -0.16464345 0.024875985 -0.14017214 -0.12008729
0000a0 75 f7 0d 3c 29 fe 61 be b9 3c 8d 3b 6b 64 6c bd
       0.008664955 -0.2206961 0.004310217 -0.057712954
0000b0 56 df ea bd 6c cb cb bd a7 a1 2a 3d e1 9b a7 bd
       -0.11468379 -0.09950909 0.04165807 -0.081840284
0000c0 81 96 8e bc db 11 bd bd 89 a5 95 3d 2f af b3 bd
       -0.01740575 -0.09231921 0.07306964 -0.08773648
0000d0 ff ec 0e 3e 28 45 31 bc 64 11 c9 3d 5d e4 15 bc
       0.13957594 -0.010819711 0.0981777 -0.009148684
0000e0 d7 95 af bc b3 32 aa 3d cf c7 84 3e 82 aa 2c 3e
       -0.021433754 0.08310451 0.25933692 0.16861919
0000f0 0a e4 76 bc b5 fe 26 3a 44 4d a6 3e 72 ed cd 3d
       -0.015069017 0.0006370352 0.32480824 0.10055055
000100 c1 c1 ba 3e e8 a2 8d 3c 1b 6f f3 3d 74 07 1a 3e
       0.36475947 0.017289594 0.11886426 0.15041906
000110 fb 48 53 bf c0 d3 47 be f9 72 f2 3c 5d ff 37 3e
       -0.82533234 -0.1951437 0.029595839 0.17968507
000120 6e 63 f5 bd ae 8c 35 bf 89 5c 35 be eb 8f d1 bc
       -0.11981855 -0.70917785 -0.1771108 -0.02558132
000130 68 11 c8 3d a5 c2 b8 bd ae 25 1f bd 58 3f 76 3d
       0.09768945 -0.090215005 -0.038854294 0.060119003
000140 e7 66 71 ba c3 0f 10 3e b8 bb e8 3d 56 35 ec be
       -0.0009208754 0.14068513 0.113639295 -0.46134442
000150 2d 93 18 3c da 77 f6 3d 1c 8b 7b 3d b6 67 4e 3d
       0.009312433 0.120345786 0.061411962 0.050391875
000160 d9 1a 0d bf e6 44 dd be b6 97 2b bd 87 9d 8b 3d
       -0.5511909 -0.43216628 -0.04189273 0.06817155
000170 b6 95 55 3e d6 c9 ae 3b ca b7 0c be ca 8a 80 bc
       0.20857891 0.0053341193 -0.13741985 -0.01569118
000180 13 1c ee bb 20 9b 94 3d 22 84 8c 3e 30 16 c5 bc
       -0.0072665303 0.0725615 0.2744456 -0.024058431
000190 08 94 74 3e 61 e6 e9 bc 3d a1 0d bf 24 1b 86 be
       0.23884594 -0.028552236 -0.55324155 -0.26192582
0001a0 72 79 9a 3d 07 fa 93 bd 4d 7c 54 bd 7c 14 01 bf
       0.07542695 -0.07225423 -0.051876355 -0.5042188
0001b0 8f f9 88 3e 86 71 31 3d d3 e0 19 bd e1 f3 c4 3c
       0.26752898 0.043321155 -0.037567925 0.024042072
0001c0 17 a5 e9 3d f3 8f eb 3e dd e7 91 3e 09 37 17 3d
       0.114084415 0.46008262 0.2849721 0.03691772
0001d0 fd 25 18 bd 73 32 1c be da 13 66 3e ce 9b 66 be
       -0.037145603 -0.1525362 0.2246851 -0.22520372
0001e0 18 e6 d0 3c 3f 82 5a bd cb 7e f6 3d bc b4 ce bd
       0.025500342 -0.05334687 0.120359026 -0.10093066
0001f0 b9 43 d4 bb 8a 8f 53 bd f2 da bf 3d e1 79 73 bd
       -0.0064777997 -0.05165056 0.093679324 -0.059442405
000200 89 fa bc bd fc 24 25 3c 56 3b 06 3d 3c 7e 9b be
       -0.09227473 0.010079619 0.03277143 -0.30369747
000210 0e d1 b8 be 5b 52 ce 3d 7a c4 99 bc 29 4f 05 be
       -0.36096996 0.10074302 -0.018770445 -0.13018478
000220 ca e0 b0 be 00 57 77 3d 93 76 10 be 40 79 00 bc
       -0.345465 0.060385704 -0.14107732 -0.007841408
000230 88 5d 0e 3e 84 ba a1 3e 15 20 ff 3e 06 73 d0 3d
       0.13902867 0.31587613 0.49829164 0.10178189
000240 b5 e2 be 3c 80 46 e5 bd c7 00 7e 3e 9d e8 2f 3e
       0.023301462 -0.111950874 0.24804984 0.17178579
000250 d3 1e 71 be 5d 00 7d 3d
       -0.23546915 0.061767925

conv1.bias f4 [6]
000000 47 e6 04 bb 1c 8a 66 be 88 2e 5c 3c cc ae d9 3d
       -0.0020278858 -0.22513622 0.013438828 0.10629043
000010 4e f7 df 3c fe 78 a8 bb
       0.027339604 -0.0051413765

conv2.weight f4 [16, 6, 5, 5]
000000 4c de b2 bd d2 b2 a5 bd 5f 95 48 3c 0c 93 16 3e
       -0.08733806 -0.08090748 0.012242644 0.14704531
000010 8b 26 38 bc 2e 1e d7 3d ad 77 72 be 18 c3 1f bf
       -0.011239658 0.10503803 -0.23678465 -0.62407064
000020 b6 cd 0d 3d 0d aa da 3c a6 01 19 3e 30 25 7d be
       0.03462001 0.026692415 0.14942035 -0.24721217
000030 8b c5 0d bf 59 56 86 bb 89 96 8f 3c 0c 51 86 3d
       -0.5537955 -0.004099649 0.017527835 0.06558427
000040 e2 29 89 bd 66 3d 12 bd 99 cf 27 3d 99 8d 07 bd
       -0.06697442 -0.035703085 0.040969465 -0.033094022
000050 5a ec 87 3d d2 27 58 bd 72 f9 e9 ba 1f 4a 02 3d
       0.06636877 -0.05277235 -0.001785083 0.03180897
000060 46 18 01 3d d4 26 00 bd 8e 60 2b bd a5 a0 a4 3b
       0.03151729 -0.03128703 -0.04184013 0.005024033
000070 19 4b 4f bd 05 f5 02 bd 83 35 78 bd 1d cd d5 bc
       -0.050608728 -0.03197195 -0.060597908 -0.026098782
000080 b8 46 5f bd 7c ae be bc 29 8d 81 3d 69 37 9c 3d
       -0.054510802 -0.02327656 0.06325752 0.07627756
000090 3d 82 25 3d 77 fc 26 bd 81 53 4e 3c bc 63 0c 3d
       0.040407408 -0.040768113 0.012593151 0.0342748
0000a0 96 f0 10 3d b9 92 c5 3c 5d 94 c8 3c 70 fb 6d bd
       0.03538569 0.024117814 0.024484808 -0.058101118
0000b0 fd d4 1e bd 51 68 c7 bc 86 21 c0 bc 93 03 63 bc
       -0.03877734 -0.024341734 -0.023453485 -0.013855833
0000c0 63 c7 9c bd 9b 16 91 bd c0 b5 79 3e 8b c4 0e 3d
       -0.076552175 -0.0708439 0.24385738 0.034855407
0000d0 3c b8 9f 3d dd f2 e4 3d 32 7f b9 bd 72 05 15 3e
       0.07798812 0.11179135 -0.09057464 0.14552858
0000e0 65 d2 4c bf 68 16 be be 95 d8 6b 3e 69 99 30 bd
       -0.80008537 -0.3712647 0.23031838 -0.043115053
0000f0 6b 36 ca 3d a6 67 17 bf 76 b3 60 be 18 0c 5d 3e
       0.09873661 -0.5914253 -0.21943459 0.21586645
000100 12 11 fb bc 0b 94 d5 3d 64 b6 af 3c af fd ea 3d
       -0.030647788 0.104286276 0.021449275 0.114741676
000110 a1 f9 6b 3d 06 dd c2 3c 3f ed 1a 3d 45 2a b2 3d
       0.05761111 0.023787033 0.03782391 0.086994685
000120 cd 2e 0d 3d 44 ce 3b bd 23 96 9e bb a0 4a 5b bb
       0.03446846 -0.045851007 -0.004839675 -0.0033461228
000130 a0 c2 5c 3e 65 87 ae 3e 5e ce e5 3d cc 4a b3 3a
       0.21558619 0.34087673 0.11221002 0.0013678907
000140 4f 70 da bc b7 5f 96 be 4c ff e4 3d f8 9e f9 3d
       -0.026664881 -0.293699 0.111815065 0.12188524
000150 07 28 d6 3c a6 61 86 3d e2 b3 00 bf 74 9f e1 be
       0.026142133 0.06561594 -0.5027448 -0.44066966
000160 30 18 29 3d 36 5e 6a 3d e2 83 66 3e 91 4f d0 be
       0.041282833 0.057218753 0.22511247 -0.40685704
000170 a3 24 86 be 7e 89 8b bc ad 7b 27 3d 57 7c 0d 3e
       -0.26199827 -0.017033335 0.04088943 0.13816963
000180 b5 0f 25 3e d3 a9 64 3d f0 3b 81 3d e4 dc a9 3d
       0.16119273 0.05582602 0.0631026 0.08294085
000190 9d 87 a5 3d 35 0f 80 3c 71 89 77 bd 4e 89 88 bd
       0.08082507 0.015632251 -0.06043381 -0.06666814
0001a0 39 37 34 bc 59 c4 0f 3e ed d6 91 3e 71 10 a9 bc
       -0.010999494 0.14039744 0.28484288 -0.020637723
0001b0 83 82 0d bd 41 1c 72 3d 5e 87 06 3e ea 23 d1 bd
       -0.034548294 0.059108976 0.13137576 -0.10211928
0001c0 33 e0 07 bf 57 38 ca bc de 07 82 3d 98 58 85 3d
       -0.53076476 -0.024685068 0.06349157 0.065110385
0001d0 6d 15 0c bf 5b 10 42 bf 10 b8 8b 3c 77 f9 d9 3c
       -0.54720193 -0.75806206 0.017055541 0.026608212
0001e0 ad 4f 52 3d 1e 1e 51 bd 3a 5b e0 3c ca 94 78 3e
       0.051345516 -0.051054113 0.02738725 0.24275509
0001f0 3b ac b5 bc 92 3f dd 3c 41 46 e8 3c 64 35 93 3d
       -0.022176852 0.027007852 0.028353812 0.07187918
000200 7b fc 67 3d 23 26 3e bd e6 06 0e bd 98 ab a8 3d
       0.05663727 -0.04642309 -0.034674548 0.08235854
000210 fe c7 3b bd 36 6f 9c 3d 5c 10 46 bc 12 68 2a bc
       -0.045845024 0.07638399 -0.012088861 -0.010400789
000220 ea c7 56 be a4 d2 cc be 21 c2 33 bd a3 3d 7c 3d
       -0.20974699 -0.40004456 -0.043886308 0.06158222
000230 ec be b1 bc 1e 3b 5d be b7 e6 9d be 2f aa 8e 3c
       -0.021697484 -0.21604583 -0.30840084 0.017415134
000240 71 e2 33 bd 95 da 60 bd 19 cf 81 bc 4f a4 c8 3d
       -0.043917123 -0.054895956 -0.015845822 0.097969644
000250 48 82 5a 3e b2 ff 3c be 88 b1 33 bd 6b 45 6c 3d
       0.21338761 -0.18456915 -0.04387048 0.05768339
000260 c1 28 97 3e c9 a5 ed 3d b7 4c 93 bb e2 58 c9 bd
       0.2952328 0.11603887 -0.004495229 -0.09831406
000270 0d 74 13 bf ff 23 c6 3c f1 3b 86 3e 31 0a c1 bd
       -0.57598954 0.024187086 0.26217607 -0.09425772
000280 72 58 8e 3e cd 02 c4 3e 7b 19 ae be a7 25 bc 3e
       0.27801853 0.38283387 -0.34003815 0.36747476
000290 57 b7 77 bd 03 25 3e be b5 16 0d 3f 35 c4 41 3d
       -0.06047758 -0.18568806 0.55112773 0.04730626
0002a0 a6 f9 67 3e 4c c0 43 be ae 8c 49 be 1c d9 98 be
       0.22653827 -0.19116324 -0.19682571 -0.2985314
0002b0 8a f0 43 bd c7 cb 9f 3d 2b 10 3d bd fa fd b5 3c
       -0.047836818 0.07802539 -0.046157997 0.022215832
0002c0 fd a3 1f 3c d9 15 53 bd c4 d8 63 bc 97 31 5e 3d
       0.009743688 -0.051534507 -0.013906661 0.05424651
0002d0 71 f8 76 bb 13 6d a4 bc 96 82 45 bd d4 5e df 3c
       -0.0037684704 -0.020071542 -0.04822024 0.027266897
0002e0 0c ba a2 3c 6d 19 2e 3d 24 b4 94 3d f2 9b 0d 3d
       0.019864105 0.042504717 0.072609216 0.03457255
0002f0 50 23 67 3d 9d 83 9b 3d b6 7a d6 3c f8 31 5e 3d
       0.05643016 0.075934626 0.02618156 0.054246873
000300 ce 40 40 bc 69 0f 46 b9 2d 1e 90 3c 57 d9 15 bb
       -0.011734201 -0.00018888492 0.017592514 -0.002286514
000310 bd 1f 9d 3d 9b a3 95 3d c5 d0 92 bd e4 c4 8a 3b
       0.07672069 0.07306596 -0.07168726 0.004234897
000320 55 d6 79 3d 66 28 ce 3a f8 15 4e 3d 32 e2 d2 bc
       0.06099542 0.0015728592 0.05031392 -0.025742624
000330 8a 96 4f bd 20 c4 57 be e9 b3 16 be 3f 9a 11 3d
       -0.050680675 -0.2107091 -0.14717068 0.03554749
000340 43 69 b3 bd 99 27 bc bb fa 96 35 be 94 0d 49 be
       -0.087603115 -0.005742025 -0.17733374 -0.19634086
000350 86 9a 23 3d 46 5e 92 3d f7 b0 26 3c ce 04 e3 bc
       0.039942287 0.071468875 0.010174028 -0.027712252
000360 bb b0 26 3e b8 04 5e bc c3 82 21 3d 06 ce 1a bd
       0.16278355 -0.01355093 0.039431345 -0.037794136
000370 b8 3b 2a bd 66 d2 84 3d 9d 89 0b bd c7 37 43 3d
       -0.04156086 0.06485443 -0.034066785 0.047660615
000380 4b b5 55 bd 22 de 75 3d 32 37 f7 bc aa 29 5f 3e
       -0.052174848 0.060026295 -0.030177686 0.21793237
000390 c5 25 8a bb 3b 3d 2b bd f4 71 98 bd da 8d 8e 3c
       -0.0042159283 -0.04180644 -0.0744361 0.017401624
0003a0 dd 63 99 3b fa 21 e3 3d b9 ec 6d bd b2 59 c8 be
       0.004681094 0.11090465 -0.058087084 -0.39130932
0003b0 75 32 1d be d4 9e 24 bd 5d e9 3d 3d 95 10 b7 3d
       -0.15351279 -0.040190533 0.04636513 0.0893871
0003c0 2b 51 ee bc 19 41 fd 3d 07 78 28 bd 1c 60 b1 3d
       -0.029091438 0.12365932 -0.041130092 0.086609095
0003d0 2c a1 81 bd 3e 97 96 bd ea 5c d5 bd 25 17 ec bb
       -0.06329569 -0.07353066 -0.104181126 -0.0072049075
0003e0 0e 58 4f 3d d7 f1 0f bd 8e 0e a0 3c d0 14 c5 bc
       0.050621085 -0.035142746 0.01953819 -0.024057776
0003f0 4d cb 9e 3c 7d 77 89 bd 68 5a 24 bd 98 df ad bc
       0.01938405 -0.06712244 -0.04012528 -0.021224782

conv2.bias f4 [16]
000000 60 dc f5 3c 05 10 5e bb 6a 4d 3d bc d9 c8 60 bd
       0.03001231 -0.003388406 -0.0115541015 -0.054879043
000010 e3 f1 73 bc d2 a6 2a be 77 09 91 3a b2 e0 39 bd
       -0.014889213 -0.166652 0.0011065443 -0.0453803
000020 a7 63 14 be 72 4e f7 bb 6e c6 fb bc 40 72 af bd
       -0.1449114 -0.007547193 -0.030734267 -0.08566713
000030 84 02 0e 3c b6 34 21 be 14 37 74 bd 2f 19 ad bb
       0.008667592 -0.15742764 -0.05962284 -0.005282543

conv3.weight f4 [32, 16, 3, 3]
000000 7c db 3e bd 4b 42 26 3d 47 9d 7d bd 31 e1 63 3c
       -0.046596035 0.040590566 -0.06191757 0.01390867
000010 96 93 22 bd 9f 71 8a bd 54 d4 2a bd 7e e5 2d be
       -0.03969153 -0.06759953 -0.041706398 -0.16982076
000020 8c d1 06 be 1d e6 49 bd 33 41 20 3d c4 42 86 bd
       -0.13165873 -0.04929172 0.03912468 -0.06555703
000030 ca f5 fe bd 2c 01 75 bd bc 39 03 be 42 cc 4b bd
       -0.12449224 -0.05981557 -0.12814993 -0.049755342
000040 9a d8 66 3c 2b ec 3c bd dd 7f 4a bd c6 51 17 3d
       0.014089728 -0.046123665 -0.049438346 0.03694322
000050 7b 15 73 bd 0c 03 b4 bd 37 2a 66 bd 83 d8 32 bb
       -0.059346657 -0.08789644 -0.056192603 -0.0027289696
000060 ac fa 02 be 69 1c 07 be ac 2e 2a 3d 65 16 fb bc
       -0.12790936 -0.13194431 0.041548416 -0.030650327
000070 8b d4 4e bd da ed cd 3b 72 3a e5 bc e7 f4 15 bd
       -0.050495666 0.0062844576 -0.02798197 -0.03661051
000080 db dc 1d be 0b d1 b4 3c 2f e9 aa bc ce d9 87 bd
       -0.15416281 0.022072336 -0.020863144 -0.0663334
000090 40 52 c6 bd d7 18 30 b9 36 2e 34 bc c7 7f d7 3d
       -0.09683657 -0.00016793922 -0.010997346 0.105224185
0000a0 52 bb 02 bc f3 15 9f bc 48 c0 bd 3c 4f 44 9d ba
       -0.007979231 -0.019419646 0.023162976 -0.0011998507
0000b0 59 f1 83 bd 07 f6 29 bd 84 b6 a8 bb 97 25 3e bd
       -0.06442518 -0.041494396 -0.0051487107 -0.046422567
0000c0 d1 20 65 3d c3 f4 59 bc f8 ed a7 bd ed 62 6d bc
       0.0559395 -0.013302985 -0.08199686 -0.014488918
0000d0 96 f9 b3 bd b2 b5 04 bd 5a 22 d7 bd 6c 1e ed 3c
       -0.08787839 -0.03239984 -0.10504599 0.02894517
0000e0 da cd 39 3d 0f 69 2a bd bc 9c a1 bd 74 8c e3 bd
       0.04536233 -0.041604098 -0.07891223 -0.11110774
0000f0 91 b8 8d bd 54 cd 38 3d 0c 41 2f bd f1 32 a6 bd
       -0.06919969 0.04511769 -0.042786643 -0.08115185
000100 58 05 85 bd 4b d3 42 39 38 7c 1d be 49 bc dd bd
       -0.0649516 0.00018579995 -0.15379417 -0.10826928
000110 ea 0b 5e bd 61 51 e3 3b 38 1d f8 bd 4f e9 12 be
       -0.05421058 0.0069371914 -0.12114948 -0.14346813
000120 90 10 84 3d 08 88 89 3d b3 87 15 3d a2 9c 98 3d
       0.064484715 0.06715399 0.036506366 0.0745175
000130 cd 0a 04 3d e4 b8 6b bd 94 88 7b bc 57 df 36 3d
       0.032236863 -0.057549372 -0.015352387 0.044646587
000140 43 dd 53 3d 9c f2 cf bb b3 61 cb bc ac 66 95 3c
       0.051724683 -0.00634606 -0.02482686 0.018237434
000150 fa 7f f8 3c b6 ce 1b bd 01 d5 04 bd a3 1e 71 bd
       0.030334461 -0.03803893 -0.0324297 -0.058867108
000160 21 d8 22 3d 9a 1b b3 bd 5f e3 1e 3c 21 52 85 bd
       0.039756898 -0.08745499 0.009697764 -0.065098055
000170 6f a1 00 bd da 31 ce bd 2f c1 db bd 42 0b d0 bd
       -0.031403955 -0.10068102 -0.10730206 -0.10158397
000180 8c df 0c be 50 ed e0 bd 71 0e 8e bd bc 01 f9 ba
       -0.13757151 -0.10982764 -0.06936348 -0.0018997709
000190 b6 ef 99 ba 44 cf b9 bd 6a 67 b0 bd 5b e4 e1 bd
       -0.0011744413 -0.09072736 -0.08613475 -0.110298835
0001a0 70 81 db bd c2 db fb bd ac 8c 30 bd 6d ca c8 bc
       -0.107180476 -0.12297775 -0.043102905 -0.024510587
0001b0 8e c1 33 3c d9 14 7b 3b e1 81 a3 bd 7c 42 a3 3d
       0.01097144 0.0038311987 -0.07983757 0.07971665
0001c0 a8 a1 f9 bc 09 38 a2 bd d4 6c 97 bd 05 90 39 bd
       -0.030472592 -0.07920844 -0.07393804 -0.045303363
0001d0 bb 04 82 bd 9e 78 4f bd 63 0a d2 bd b9 2f a2 3d
       -0.063485585 -0.05065214 -0.10255887 0.079192586
0001e0 fb e8 99 bd 0f b8 a2 bd de a9 a9 bc f4 13 a4 bd
       -0.075151406 -0.07945263 -0.020710882 -0.08011618
0001f0 9a 55 db bd 77 2b 86 3a 11 c3 3a bd b0 79 4f 3c
       -0.107096866 0.0010236342 -0.045596186 0.01266329
000200 38 0d be bb e8 c2 58 bd d9 c3 13 bd 6c ec 9f bb
       -0.0057999156 -0.052920252 -0.036075447 -0.0048804786
000210 d6 4c 84 bd ca 47 a1 bb 19 55 9c bd ac c6 c2 bd
       -0.06459968 -0.004921888 -0.076334186 -0.0951055
000220 90 05 e4 3c 54 45 77 3d f4 56 0c 3b 2d f9 24 bd
       0.027834684 0.06036885 0.0021414133 -0.040276695
000230 db a6 53 3b 40 e0 d9 3b b3 78 67 bd ef 9f 07 be
       0.0032295499 0.006649047 -0.056511592 -0.13244604
000240 c7 e0 8e bd 6d 01 84 be 4b e4 30 be a8 b6 c7 be
       -0.069764666 -0.25782338 -0.17274587 -0.39006543
000250 f4 89 e0 be 91 5f d2 be e8 45 4e bd a4 5c 0a be
       -0.4385525 -0.41088536 -0.050359637 -0.13511902
000260 5e 7d 1c be b3 06 08 bd d0 0e 27 3e 0b 9a bf 3d
       -0.15282199 -0.033209514 0.16314244 0.09355553
000270 68 22 a3 bc 35 fb 65 3c ae 7a 2e 3b 1f 77 89 3c
       -0.019913867 0.014036943 0.0026623416 0.016780434
000280 50 f1 8b 3d cd 4e b8 3d fc 38 41 bd 2f 97 83 bd
       0.06833136 0.08999405 -0.047173485 -0.0642532
000290 9c 7f b1 3d 82 61 06 3d 02 d6 95 bd 31 f0 4c 3d
       0.08666918 0.032807834 -0.073162094 0.050033752
0002a0 e8 c3 30 3e 66 88 93 3d 9a 5e 94 bc 80 ea e6 be
       0.17262232 0.0720375 -0.018111516 -0.45100784
0002b0 4c b0 e4 be fd a5 5d be a7 6a f5 be 1d b8 9d be
       -0.44665754 -0.21645351 -0.47932932 -0.3080453
0002c0 d5 09 4c 3d ab 46 8f be 18 a0 ad bd 29 f3 cc bd
       0.049814064 -0.27983603 -0.08477801 -0.100073166
0002d0 7a 7b db be a5 14 af be 28 84 01 bf b8 4a 4c bf
       -0.42867643 -0.34195438 -0.5059228 -0.7980151
0002e0 ec 59 e1 be 47 56 61 be 64 32 8e be 62 a5 0e bf
       -0.44013917 -0.22005568 -0.2777282 -0.55721104
0002f0 99 bb 8c be 64 cb 27 be c4 0c 22 be 6f 3a b6 bd
       -0.27486876 -0.16386181 -0.15825182 -0.08897864
000300 22 c0 93 be a3 5a 4d be 9d c4 a0 3d 98 49 c6 3d
       -0.28857523 -0.20054106 0.07850001 0.09682006
000310 ed 5b f5 bd 3a 7b 01 bd 0b 86 8e bd bf 0d f1 bd
       -0.11980424 -0.03161166 -0.069591604 -0.117702
000320 a8 d9 49 be 50 1d ad 3c 40 7e a1 be b6 be 11 3d
       -0.19711936 0.021132141 -0.31541634 0.035582267
000330 5b ea 4d bd 76 78 72 3e d3 27 56 bd f7 3b a8 bd
       -0.050272327 0.23678765 -0.052284073 -0.082145624
000340 d8 81 9c be 13 1a 46 be 17 fb 98 be cc 17 bb be
       -0.30567813 -0.19345884 -0.29879066 -0.36541593
000350 e7 a0 ea be 43 4b 8f be ef 30 50 be ac 33 02 be
       -0.45825884 -0.27987108 -0.20331167 -0.12715024
000360 a4 ba d7 bd fa 2f 8b bb 2d d0 21 bd 42 25 1f 3c
       -0.10533646 -0.0042476626 -0.039505173 0.009713473
000370 7d a7 67 bc 65 25 2c bd 38 ba 1b 3d 16 9a 2f 3d
       -0.014139053 -0.04202785 0.03801939 0.042871557
000380 77 a0 cc bc 00 1e 4d be 79 11 fe be 0e 02 23 be
       -0.02497886 -0.20030975 -0.49622706 -0.15918753
000390 a4 7a ec bd 08 40 b5 be 22 a2 00 bf 9e ce 27 be
       -0.11546829 -0.35400414 -0.50247395 -0.16387412
0003a0 c9 de a7 be c8 74 9d bc aa 28 72 bc 4b 04 a4 3d
       -0.3278716 -0.019220725 -0.014780203 0.08008631
0003b0 78 7d ef 3d ee 61 70 3e 85 e7 c7 3d b6 64 87 3d
       0.11693853 0.23474857 0.09760956 0.06611006
0003c0 8b 5d cd 3e 86 4d 91 3d df 48 a4 3e b4 93 90 bc
       0.4011043 0.070948645 0.32086846 -0.017648555
0003d0 b6 55 44 be b5 53 fc bd e2 ca 32 be 45 be 4a be
       -0.19173321 -0.12320653 -0.17460206 -0.19799145
0003e0 cb 29 9c be 4e a5 5c 3d e5 6b c2 3a d6 61 f2 bc
       -0.30500636 0.053868584 0.001483318 -0.029587667
0003f0 9d 56 20 3e 67 d3 e3 bd f7 d5 9a be 5c 59 60 bd
       0.1565804 -0.11124306 -0.30241367 -0.05477272

conv3.bias f4 [32]
000000 b6 0a 20 be 27 a0 a1 3d 47 3b b1 3d 92 ac 26 bb
       -0.15629086 0.07891875 0.086538844 -0.002543245
000010 eb 58 fe 3d 2d 37 1e be cc 8b af bc d0 a0 d0 3d
       0.124193035 -0.15450735 -0.021428965 0.101869226
000020 45 19 0e be 1f 0b e6 3d 84 28 73 bd 69 72 b5 3d
       -0.13876827 0.1123259 -0.05936481 0.08859713
000030 3a 3b 81 bc a0 df 5f be 68 f8 16 3d 98 95 c9 bc
       -0.015775312 -0.2186265 0.036857992 -0.024607465
000040 d1 40 63 3c 6d 22 36 3d 59 04 30 bd 86 a3 ae bd
       0.013870434 0.044466425 -0.042972896 -0.08527283
000050 d6 fd 28 3d 7d af f7 bd 8b e2 d1 3d f7 e9 61 3d
       0.0412577 -0.120940186 0.10248288 0.055154767
000060 9d 99 4f 3c a4 6c 9d 3d b8 56 3e 3b d0 00 e7 bd
       0.012670902 0.07686737 0.0029043388 -0.11279452
000070 94 82 af bc 53 5f a6 3d 5b a8 3e be 51 f7 b5 3c
       -0.02142457 0.081236504 -0.1861891 0.022212656

fc1.weight f4 [120, 288]
000000 cd 95 03 3e 0f f5 18 3d 70 7a 17 bc fc d6 dc 3c
       0.12850113 0.03734308 -0.0092455 0.026957981
000010 56 e4 27 bc b6 da f6 bc 7e 17 72 3d 63 4d 9a bc
       -0.010247311 -0.030133586 0.059104435 -0.018835729
000020 70 43 af 3c b7 24 65 3d 74 c7 19 3e f6 c0 32 3e
       0.021394461 0.055943217 0.15017492 0.17456421
000030 18 a9 5a bd a1 5d 89 3d 16 9b 2c 3e cf fa 2c 3e
       -0.053383917 0.067073114 0.16856036 0.16892551
000040 89 22 6a 3d f1 8a de bd 2b 25 dc bd 2c 38 1c be
       0.05716184 -0.10866345 -0.10749277 -0.15255803
000050 f6 b8 39 be 91 22 9f 3c 06 95 02 be 9a c7 6a be
       -0.18136963 0.019425662 -0.1275216 -0.22927704
000060 78 8d 13 bc 0c ee 2f bd ac 17 5e be 48 d1 e0 3a
       -0.009005897 -0.04295163 -0.21688718 0.0017152214
000070 25 b5 59 be f5 e8 a6 be 34 e6 a2 bd 24 0d 91 be
       -0.21260507 -0.32599607 -0.07954064 -0.28330338
000080 b9 51 59 be 81 30 3b 3e d2 6c 34 3d 7b a7 36 bd
       -0.21222581 0.18280222 0.04404909 -0.044593316
000090 89 12 4c 3e c6 29 81 3e 1b 56 46 3e af 1a 8a 3e
       0.19928946 0.25227183 0.19368784 0.26973483
0000a0 f8 4b f6 3c 93 38 8a 3d 1e 0c 8b 3d c3 a9 e1 3d
       0.030065522 0.06749072 0.067894205 0.110187076
0000b0 58 b1 83 3d 0b 9b 38 bd c9 77 13 bd 66 90 00 bd
       0.0643031 -0.045069735 -0.036002908 -0.03138771
0000c0 e6 34 04 3d a4 73 4f bd da 26 4e 3d 8c 7f 02 3d
       0.03227701 -0.050647393 0.05033002 0.03185992
0000d0 d6 d1 6e 3b 07 f7 6d 3d 5d 9f 57 bd 5f 74 36 be
       0.003644099 0.05809691 -0.052642215 -0.1781783
0000e0 3f df 4e 3d f4 0e 58 be 25 8f 42 be db 89 c5 bd
       0.050505873 -0.21099454 -0.18999918 -0.096454345
0000f0 62 87 01 be 96 b1 dc bd 4c 7a 58 bc 7d c7 ef bd
       -0.126493 -0.10776059 -0.013212752 -0.11707971
000100 2d c4 60 bd 01 1a 3c be 1d 5f bf bb 4a 18 da bd
       -0.054874588 -0.18369295 -0.005840196 -0.10649164
000110 a9 2b 50 bd 9e 63 92 be a7 18 bb be fc 31 b4 be
       -0.050822888 -0.28591627 -0.36542246 -0.35194385
000120 c4 e5 aa 3d d4 6f a6 3d ad 6c 8e 3d 2b 43 8f 3e
       0.083446056 0.08126798 0.06954322 0.27980933
000130 8d 06 3b 3e 92 4e 4e 3e 3e ce 22 3e 98 1b 81 3e
       0.18264218 0.2014716 0.15898988 0.25216365
000140 dc a6 51 3e 78 42 22 be 44 a7 2d be b3 4b 75 be
       0.20473808 -0.15845668 -0.16958338 -0.23954658
000150 32 68 40 bc 59 7d 8c bb 9d e2 ad bc 69 26 20 be
       -0.011743592 -0.0042874035 -0.021226222 -0.15639652
000160 22 8c db bd 5c ab 0f be a8 51 ac bc 64 90 86 3d
       -0.107200876 -0.14030212 -0.02103503 0.06570509
000170 e3 92 57 3d a0 e6 5c 3c a9 51 72 3d f3 a3 16 bd
       0.052630316 0.01348272 0.05915991 -0.036777448
000180 60 1a 0e bd 5d d6 e8 3c 6e 58 f0 3c a2 22 8a 3c
       -0.034693122 0.028422529 0.029339042 0.016862217
000190 a4 49 0b 3d 72 f5 89 3d 5f 8e 1e 3e b7 8a 1c 3d
       0.034005776 0.06736268 0.15483998 0.038218226
0001a0 40 d4 f8 bd 17 38 3e 3e 02 b7 94 3d 64 57 75 3c
       -0.121498585 0.18576084 0.072614685 0.014974449
0001b0 d8 1c 7d 3d 14 65 a6 3c 40 a8 19 bd 6a 35 f7 bd
       0.061795086 0.02031187 -0.03751397 -0.12070735
0001c0 13 cc 94 bc 96 42 93 bd 84 00 80 bd 36 bd 2f 3d
       -0.018163716 -0.07190435 -0.06250098 0.042905055
0001d0 73 4a 6b bd 72 ba 0b be 56 02 19 3d 41 dc b4 bd
       -0.057444047 -0.13645342 0.037355743 -0.088310726
0001e0 84 ed c4 3c 9d bb 36 3d 99 43 de 3a ca ef 3a 3d
       0.024039038 0.044612516 0.0016957402 0.045638837
0001f0 a9 66 c0 3d 1c 8f 32 bd 27 48 07 be cb 26 b5 3c
       0.09394581 -0.04359351 -0.13211118 0.022113224
000200 fc d4 64 ba 72 60 fd bd f4 7f f0 bd 08 79 12 3d
       -0.0008729247 -0.12371911 -0.11743155 0.035759956
000210 f2 a0 2b be a4 95 fa bd e9 6f c0 bd 2b f6 85 3c
       -0.16760615 -0.12235573 -0.09396345 0.016352734
000220 0f 79 59 be ae 8a 20 be c4 28 ce bd c2 bb a0 3d
       -0.21237586 -0.15677902 -0.10066369 0.07848312
000230 af 8c 72 bd c2 1c 95 bd 89 9f aa bc c4 8a 29 be
       -0.059216198 -0.07280876 -0.020828025 -0.16556841
000240 33 c4 f7 3c f3 3f 76 bd c2 c0 37 3e 11 c9 71 bc
       0.030244922 -0.06011958 0.17944625 -0.014757411
000250 6d ac 82 3e 9d fb 1e 3e 72 5c 5d 3e ba a1 9c 3e
       0.25522175 0.1552567 0.21617296 0.30592138
000260 d4 8e b5 3c b1 79 2b be 97 70 9f bd 44 39 70 bd
       0.022162832 -0.1674564 -0.07785147 -0.058648363
000270 e2 5a f7 bc 5a 78 28 bc 57 ff 6a 3b 36 40 fb bd
       -0.030194703 -0.0102826 0.003585776 -0.12268107
000280 31 45 b4 bc be 3a a2 bd 75 43 96 3e b2 4b 7f 3e
       -0.02200565 -0.079213604 0.2934834 0.24931219
000290 6d dc 95 3e a5 f4 66 3e 03 4d 91 3e fe 99 5a 3e
       0.29269734 0.22554262 0.28379068 0.21347806
0002a0 69 84 22 3e e5 32 a9 3d 44 c0 a8 3e 60 a0 04 3f
       0.15870823 0.082616605 0.32959187 0.5180721
0002b0 ca 43 1a 3d ee 2d 7e 3e 10 ee ac 3e 87 1d ad 3e
       0.037662305 0.24822208 0.33775377 0.3381159
0002c0 a9 8e a8 3d 55 68 28 3e 80 84 1b 3d 81 a9 84 3e
       0.08230335 0.1644605 0.03796816 0.2591057
0002d0 04 94 b4 bd d2 5c 6e 3c aa ab 45 3e b7 25 6d bc
       -0.08817294 0.014548497 0.19303766 -0.014474324
0002e0 26 56 ec bb 57 9e c0 bb 4a e7 7e 3e 16 a6 0c 3e
       -0.007212418 -0.0058782506 0.24892917 0.13735232
0002f0 5d cd 1b 3e 65 77 77 3e 26 95 8e 3e c1 d0 22 3e
       0.15215059 0.24166639 0.27848166 0.15899946
000300 98 24 07 3e 46 ea 62 3e f3 7a 17 3e 25 1a fa 3d
       0.13197553 0.2215968 0.14792995 0.12212018
000310 07 a6 24 3e c8 f7 5f 3e aa 6c 64 3e 83 33 12 3e
       0.1607896 0.21871865 0.22307077 0.14277463
000320 39 d7 cf 3d 73 ed 6e 3e 99 92 4f 3e 85 fd 85 3e
       0.10148472 0.23332767 0.20270766 0.26169983
000330 29 28 49 3e 65 7c 82 3e 38 f1 4f 3e b2 13 da bd
       0.19644226 0.2548553 0.20306861 -0.10648288
000340 db 3d 85 ba bf 21 a8 bd 5b 56 84 bd c8 1b c2 3b
       -0.0010165529 -0.082095616 -0.064617835 0.005923722
000350 78 6c 32 3d 61 ba b8 bd cc 0b 17 be f2 8e 46 3c
       0.043560475 -0.09019924 -0.14750594 0.012119042
000360 4f 49 45 bd 2f ba 63 bd 4f b0 98 bd 7f 35 d3 3c
       -0.048165616 -0.05559748 -0.07455503 0.025782345
000370 89 ad 18 3d 5f d3 14 bd df 84 49 bd 80 20 c8 3c
       0.03727487 -0.03633439 -0.04919898 0.02442956
000380 d7 ae cf 3c 49 6c 26 3e f5 aa 24 3e f9 1c 64 3e
       0.025351925 0.16252245 0.1608084 0.22276677
000390 ab 97 82 3e 95 b2 d2 3e 7a ea a2 3e e7 2e 9b 3d
       0.25506338 0.41151872 0.31819516 0.07577305
0003a0 f9 6b 45 3e 6c 82 90 3e 9e c1 0b 3e f3 8b db 3d
       0.1927947 0.28224504 0.13648078 0.107200526
0003b0 65 bc 04 3d 9a d0 2b 3e fc 72 67 3e b9 a9 18 3e
       0.03240623 0.16778794 0.22602457 0.14908494
0003c0 4e ac 9c 3e 78 df 66 3e 7c 8b 3b 3e f9 cf 2f 3d
       0.30600208 0.22546184 0.18314928 0.042922948
0003d0 2d 2b c2 3d 50 de 01 3e 62 b4 34 3d 4c f8 1e 3d
       0.094808914 0.12682462 0.04411734 0.038811013
0003e0 83 d3 83 3d da 26 01 3a c9 f3 89 3d 07 a5 b3 bd
       0.06436827 0.0004926749 0.067359515 -0.08771711
0003f0 04 4d 8e be 43 f4 d9 bd 91 67 09 be 50 e0 e7 bd
       -0.27793133 -0.10642292 -0.13418414 -0.11322081

fc1.bias f4 [120]
000000 d1 f6 6b bd b7 23 91 3d 37 9a ee bb f3 50 bf bc
       -0.05760843 0.0708689 -0.0072815674 -0.02335403
000010 8c e7 03 3e 3c b1 3e bb bf 50 38 3c 93 73 86 bb
       0.12881297 -0.002909734 0.01124972 -0.004103133
000020 d5 0b 01 3e 2c 6e 19 be 20 34 9f bb 17 c3 27 bd
       0.1260217 -0.14983433 -0.0048585087 -0.040957537
000030 7a 39 20 3c dd c9 b2 bc 1d 24 23 3d 40 5e 2f 3d
       0.0097793285 -0.021824772 0.039829362 0.042814493
000040 16 fa b9 bd 95 ac 97 bc e2 b4 94 bd e6 61 90 3b
       -0.09080903 -0.01851491 -0.07261063 0.0044062017
000050 70 99 1d 3d 9c b4 db bd 7e 6b a3 bd bf 97 53 bd
       0.038476408 -0.10727808 -0.07979487 -0.05165839
000060 1a 70 b7 3c bd de 96 bc 27 07 cb bd 66 90 ae bd
       0.022392321 -0.018416757 -0.099134736 -0.085236356
000070 c8 d4 15 3c 56 48 d1 3d 4a 9c d8 bd 90 07 44 be
       0.009144969 0.10218875 -0.10576685 -0.1914351
000080 99 e7 98 bd cb 5d 7a 3d 6d 67 e0 3d d6 4c 7c bd
       -0.07466049 0.061124604 0.10957227 -0.061596714
000090 87 f8 12 3e 38 82 f0 bd f4 9d 56 bc 9c 28 fb 3d
       0.14352618 -0.11743587 -0.013099182 0.12263605
0000a0 be 95 c7 3d 05 02 15 3e 64 73 1c bd 34 41 41 39
       0.09745358 0.14551552 -0.038195983 0.00018430204
0000b0 d4 d9 93 3d d3 cd 95 3d 47 9d 06 bd 4d 1e 18 3d
       0.07219282 0.073146485 -0.032864835 0.037138272
0000c0 ad 62 f2 be e3 c9 dc bc 21 ae b2 3c 06 71 c5 bb
       -0.4734091 -0.026951736 0.021811547 -0.0060254363
0000d0 f4 aa d2 3d 22 6f 32 bd bb 6c ae bd d9 10 9b 3d
       0.10286513 -0.043563016 -0.085168324 0.07571573
0000e0 54 af 43 bb e1 d9 e2 bb 6e 71 af 3d 08 c6 2c bd
       -0.0029859142 -0.006922946 0.08566557 -0.042181045
0000f0 e0 4f 30 be c0 42 cb bb c5 90 01 3e 85 e2 ea bd
       -0.1721797 -0.0062030256 0.12652881 -0.114689864
000100 58 1a 81 bd 91 74 96 3b a3 95 18 3e 87 d4 01 3e
       -0.06303853 0.0045915325 0.14900832 0.12678729
000110 9a c9 bf bd 73 3a 27 be a6 e8 bc bd e8 ad 27 3d
       -0.09364624 -0.1633089 -0.09224062 0.040937334
000120 9f 38 03 bd 88 69 76 3d 13 70 f3 bd d2 0a 5e 3c
       -0.03203642 0.060159236 -0.11886611 0.013552384
000130 c9 71 2e bd 1d 8d 3f bd 80 99 bf bd 1e f5 12 3d
       -0.042588983 -0.046765435 -0.0935545 0.035878293
000140 c4 ea de bd a8 dd 60 3c 40 0d b0 3d 64 d1 e4 3d
       -0.10884622 0.013724722 0.08596277 0.111727506
000150 09 01 53 3c df bb 36 be a6 43 1a bc 20 4e a5 bd
       0.012878665 -0.17845105 -0.009415543 -0.08071542
000160 b3 df 84 bc b8 5b bd bd 06 12 ac 3d bd 63 ab 3d
       -0.01621995 -0.092460096 0.08401875 0.08368633
000170 91 6c 94 3d 37 f6 d1 bc 49 ee 6c 3d 28 29 54 be
       0.0724727 -0.0256301 0.057844434 -0.20718825
000180 b9 d3 4a bd c1 e8 ca bd 8d a3 27 be 75 83 16 3e
       -0.04951832 -0.099076755 -0.16370983 0.14698584
000190 d8 e2 e6 3d 80 0b ae 3d 00 14 a8 bd 55 d3 24 bc
       0.11273736 0.08498287 -0.0820694 -0.010060151
0001a0 07 dd 64 3c 4f f6 a3 bd 6b bf e2 3d a8 7a 33 be
       0.013968713 -0.08005964 0.11071666 -0.17527258
0001b0 3b 62 1e bd b5 9b 0c be f1 97 ad 3d 73 60 ac bb
       -0.0386679 -0.13731273 0.08476246 -0.005260521
0001c0 6f 7f a9 bd 67 6c bc 3d da 34 d4 bb 69 87 5d 3d
       -0.08276259 0.092003636 -0.006476027 0.054084215
0001d0 e2 4c 04 bd 54 10 5e 3e ac 3a 7a bd ca b3 ea 3d
       -0.032299884 0.21685916 -0.06109111 0.11460073

fc2.weight f4 [120, 120]
000000 df c4 c6 3b d6 63 1e be f8 da 52 bc 55 54 5b be
       0.0060659493 -0.15467772 -0.012869589 -0.21418889
000010 33 a9 d4 3d 91 c8 60 3c ee 39 a3 bd c2 74 98 be
       0.10383835 0.013719694 -0.079700336 -0.2977658
000020 9b 07 30 bd e7 04 90 3d 9f 03 42 be 4b 6f 7e bb
       -0.042976003 0.07032185 -0.18946694 -0.003882366
000030 87 a3 30 be 52 18 5f bd 42 85 7e 3c e4 fa e8 3b
       -0.1724988 -0.054466553 0.015534701 0.0071099866
000040 71 8c 2a bc ea f3 a6 3d 6c 24 50 3d fa 13 0d bd
       -0.01040946 0.08151992 0.050815985 -0.03444288
000050 04 45 23 be 30 5b 65 3d 44 cb 13 be 80 8e 7f bd
       -0.15944296 0.055995166 -0.14433008 -0.062391758
000060 9d 5c 58 bb 7b 65 f3 bd eb 77 1f bd bf d0 33 be
       -0.0033014186 -0.1188459 -0.038932722 -0.17560099
000070 7f b2 8d 3d ba 40 9d bd a9 4c 2d be cb 5c d2 3d
       0.06918811 -0.07678361 -0.16923775 0.10271605
000080 4d cc 74 3d fe 69 dd be f4 e3 42 be f8 6d 13 bc
       0.05976515 -0.43244928 -0.1903227 -0.008998387
000090 bb bb 73 3c f2 1b be bc ec 68 92 bd 2d 7c 7b be
       0.014876301 -0.023206685 -0.071489185 -0.24559088
0000a0 4e e9 a9 bd 6e d4 90 bd 0b c8 c8 be 00 fe b8 bb
       -0.082964525 -0.07071768 -0.3921512 -0.0056455135
0000b0 1e 9c f5 bd 68 66 1f bf dc ea 94 bd 7b b6 33 bf
       -0.119926676 -0.62265635 -0.07271358 -0.7020032
0000c0 ce 6e 3f be 8b 94 35 3d ce 93 fd bd c1 a5 a5 bd
       -0.18694612 0.044331115 -0.12381707 -0.08088256
0000d0 3e 11 c3 3c 7e 95 2c bc ba 53 26 3d 1c 63 a7 bc
       0.023811933 -0.010533689 0.04060719 -0.020433001
0000e0 72 0c 18 3d 5d 24 8e bd 4b 10 17 3c 0b 3c 28 3d
       0.037121244 -0.069405295 0.009220193 0.041072886
0000f0 9d bb 3d 3d 6d 7c e9 3d 8f d0 ba bd fb 0d 82 bd
       0.0463215 0.114006855 -0.09121811 -0.06350323
000100 23 51 b6 3d 3d c3 9f 3c dc de 01 3e b6 1f 0b 3d
       0.08902194 0.019502277 0.1268267 0.03396579
000110 6c f5 83 bc 89 6c c3 3c b4 1f e0 bc 0e 9f 89 bd
       -0.016108237 0.023855465 -0.027358867 -0.067197904
000120 a8 4a 10 bd 89 98 6c bd 77 2b 7f 3d b7 d0 1d be
       -0.035227448 -0.057762656 0.06229731 -0.1541165
000130 28 24 32 bd 6a bb 22 bd d2 72 d2 bd df ae cf bd
       -0.043491513 -0.039729513 -0.102758065 -0.10140776
000140 ce 72 dd bc d9 65 b7 3c dd 0d 32 bf ae 58 5e bc
       -0.027032282 0.022387432 -0.69552404 -0.013570948
000150 f9 40 9b ba cb c4 1c 3e 6f b8 8a 3d ad 14 8c bd
       -0.0011844925 0.15309446 0.06773459 -0.06839881
000160 70 ae a4 be 69 40 84 3d b1 31 8b 3c 77 14 40 bf
       -0.32164335 0.06457598 0.016991468 -0.75031227
000170 c1 59 a1 bd c8 5d 41 bd 0c 1e 0f 3c 42 5f b3 be
       -0.07878447 -0.047208577 0.008735191 -0.35033613
000180 05 91 c2 bd 26 84 89 bd 2e a7 05 bf 65 6f 25 be
       -0.095003165 -0.067146584 -0.5220822 -0.16155775
000190 32 e8 d3 3d 5d a3 3a bd 76 99 80 bc 84 df 86 3d
       0.10347022 -0.04556595 -0.015698176 0.06585601
0001a0 b1 ea a5 be fd 79 2f bc ef 23 2e bd 8d 4f 3e bc
       -0.32405618 -0.010710237 -0.042514738 -0.011615646
0001b0 d0 48 03 3d 0c e1 8b 3c 78 bf f7 be 8a c3 96 3d
       0.03205186 0.017075084 -0.48388267 0.07361515
0001c0 29 40 88 bd 43 be 68 bd 57 4c 94 be e5 6c 4a be
       -0.066528626 -0.056822073 -0.28964493 -0.19768102
0001d0 7d 23 68 bb 58 74 a7 bc cd 0e 13 be d0 2c 5c bd
       -0.0035421543 -0.02044122 -0.14361115 -0.053753674
0001e0 54 3b 2a be f1 13 48 bc 98 90 c7 bd 82 80 5e 3d
       -0.16624194 -0.012211786 -0.09744376 0.054321773
0001f0 ea 05 9e 3c b2 75 a4 3d 9d 1e 76 bb 1a 98 d9 be
       0.01928993 0.08030261 -0.0037554868 -0.42498857
000200 ca 79 9e 3d 9e 26 14 bd f5 5d a7 be 58 7f db 3d
       0.07738073 -0.03616964 -0.3268887 0.10717648
000210 a1 ec 1a be 68 6d db bd 41 57 9b 3d c1 c1 37 be
       -0.1512933 -0.10714227 0.07585002 -0.17945005
000220 26 58 8a bd 84 9e e8 3c cc 30 e9 bb 51 b5 08 bc
       -0.06755094 0.028395899 -0.0071164127 -0.00834401
000230 07 f7 17 3c 9b 41 9e 3c 11 e4 8d bd e1 98 12 3d
       0.0092752045 0.019318393 -0.06928266 0.035790328
000240 81 50 79 bc 66 e2 2f bf 85 2b c2 3d c9 2c 01 be
       -0.0152169475 -0.6870483 0.09480957 -0.1261474
000250 28 60 df bd dc 86 ac bd 3d f5 28 be 8b 54 0b 3e
       -0.10907012 -0.0842416 -0.16499801 0.1360647
000260 57 2a 4b 3c 39 be 66 bc 00 9d b8 3d 3b 58 e0 be
       0.012400231 -0.014083439 0.090143204 -0.43817315
000270 46 e5 9d 3d 48 a8 6a bb 4b 55 12 bc 95 8e 1c bd
       0.07709746 -0.003580587 -0.008931468 -0.038221914
000280 b6 8f 97 3b 68 14 02 3d 82 2a 84 3b ce af f3 3d
       0.004625286 0.031757742 0.0040333876 0.118987665
000290 8f f0 f6 3b 7a 7b 96 3c 3e 5c dc bd 30 bf 0e 3d
       0.007536001 0.018369425 -0.10759781 0.0348503
0002a0 d7 10 ff be 8a c9 6f 3d 35 15 a8 3d 1f 0d 39 bf
       -0.49817535 0.058541812 0.0820717 -0.72285646
0002b0 fa 51 8c bd c9 61 9a bb 72 6d 1b bd cd 51 d0 bd
       -0.06851573 -0.004711364 -0.037946172 -0.10171852
0002c0 c4 7c 27 be 08 a3 cb be 93 29 48 bd 88 9f 77 be
       -0.16356188 -0.3977282 -0.048867773 -0.2418195
0002d0 b8 43 ad 3d e6 40 a8 3c e3 1a 3a 3d aa bb 0b 3e
       0.08460182 0.020538758 0.045435797 0.13645807
0002e0 aa 09 7a 3e 45 18 f7 bc eb 50 49 3d ec 91 51 3d
       0.24417749 -0.03016294 0.049149435 0.051164553
0002f0 bd 64 a0 bd 2b bf dd 3c f5 d2 e6 3b df 94 bd 3d
       -0.07831714 0.027068695 0.007044191 0.092569105
000300 c7 0f 23 3e 98 6c 26 3e 09 f0 0e be 88 4c 96 3d
       0.15923987 0.16252363 -0.13958754 0.07338816
000310 52 66 b0 be cb ba e7 bd 9c b8 c8 3c 5c 2f 48 3d
       -0.34453064 -0.11314925 0.024502091 0.04887329
000320 1d 7a 31 bc f8 58 89 3d 15 be 39 bd 14 b4 14 3c
       -0.010832337 0.067064226 -0.045347292 0.009076137
000330 df 40 8f be 91 a3 9c be f4 8a ba 3d a9 d8 60 3c
       -0.2797918 -0.3059354 0.091085345 0.013723531
000340 c7 ca 20 3e f8 69 b9 bc 8f 93 96 bd e5 ba 22 bd
       0.15702353 -0.022633538 -0.07352363 -0.039729018
000350 49 56 9b 3b 2c f5 0f bf d6 56 db bc ad ee b2 be
       0.0047405106 -0.5623348 -0.026774805 -0.3494772
000360 72 90 0a bf 75 2f 00 bd 07 6f d9 be 8f a1 87 3d
       -0.54126656 -0.03129526 -0.4246752 0.06622612
000370 56 19 08 3e 5d 67 62 bd b9 d0 86 3d 3c b3 86 3d
       0.13290915 -0.055274356 0.065827794 0.06577155
000380 3c fe 9d 3c 6e f4 09 be 9f b9 0f 3e 76 80 78 3d
       0.019286267 -0.13472149 0.14035653 0.060669385
000390 02 1c 3c 3d 1a f3 43 bd 54 3e 7d bc 0b a2 34 bd
       0.045925148 -0.04783926 -0.015456755 -0.04409985
0003a0 2b d1 8d 3d ca 6f 37 3d 8d d3 1a be 28 bd c5 be
       0.06924661 0.044784345 -0.15119763 -0.38620877
0003b0 fd e7 51 bd 3f 0d b8 3d 0e 1c 94 be 99 1e 0b 3d
       -0.051246632 0.089869015 -0.28927654 0.033964727
0003c0 f9 3a 62 3c ea f2 12 bf f1 00 2e 3e ec 7e df 3c
       0.0138080055 -0.5740191 0.16992547 0.0272822
0003d0 d5 86 a7 bc 39 74 aa be 06 cb 04 3a 12 d7 b1 be
       -0.020450035 -0.33291796 0.0005065653 -0.34734398
0003e0 04 5c 40 bf 48 4b d3 3d 7a b3 b6 be 97 4e 14 3e
       -0.75140405 0.10317093 -0.35683805 0.14483105
0003f0 75 b9 ff 3d 90 29 57 3e 48 6d a0 3d a7 f9 6d 3c
       0.12486545 0.21011949 0.07833344 0.014524854

fc2.bias f4 [120]
000000 7b e5 c6 3e fa 51 3c 3e ac 49 1d 3d c8 a5 58 3e
       0.38846955 0.18390647 0.038400337 0.2115699
000010 46 cc 9f 3d 23 db 57 3e ca 96 53 3d 4a 9f a1 3e
       0.07802634 0.21079688 0.051657476 0.3156684
000020 39 c1 e6 3d cd 15 a1 3e 59 bb b2 3c ee 62 66 3d
       0.11267323 0.31461945 0.02181785 0.05624669
000030 da f8 94 3d e0 7b 05 3e 20 54 80 3d 0c b3 1e 3e
       0.07274027 0.13035536 0.062660456 0.15497988
000040 48 33 69 3e 40 8b 01 bf 08 f3 e7 bd 19 d5 39 3e
       0.22773468 -0.50603104 -0.113256514 0.18147697
000050 ba 33 a0 3d 66 46 81 3d da 45 6f 3c 2d de 86 3e
       0.07822366 0.063122556 0.014604056 0.26341382
000060 83 5a 3b 3e d9 a0 6b 3d 1f a7 2e 3e e5 31 a8 3e
       0.18296246 0.057526443 0.17055939 0.32850567
000070 5d c9 f8 3c 76 01 ca bc 55 7b 40 be c9 8a 37 3e
       0.030369455 -0.0246589 -0.18797047 0.17924036
000080 bb 96 2a 3e 79 3c 47 3e 86 20 b9 3d d6 e2 e4 bc
       0.16659062 0.19456662 0.090394065 -0.027940195
000090 6c 52 1b bb b1 57 a2 3e f2 1f 5a 3e b9 20 45 3d
       -0.002370025 0.31707528 0.21301249 0.04812691
0000a0 8a 0d cc 3d dc 9a 57 3d 48 2d 2d 3d aa de 5f 3e
       0.0996352 0.05263792 0.04227951 0.21862283
0000b0 28 1d 57 3e 7b f7 18 3e 2b ef 23 3e 6a 22 88 3d
       0.21007216 0.14938156 0.16009204 0.06647189
0000c0 ba 4a d7 3e cd ef b0 3c 63 d3 a7 3d 95 8f 16 3c
       0.420492 0.02159872 0.08194616 0.009189506
0000d0 27 94 69 3e 38 4a d7 3e 2f 0e f1 3e 3d 54 a4 3c
       0.22810422 0.42048812 0.47081134 0.0200597
0000e0 d7 e5 93 3d 90 5e a1 be ce 85 03 3e ce c6 e6 ba
       0.07221573 -0.31517458 0.12844011 -0.0017606856
0000f0 ca 59 0f 3e 73 5b 72 3d 0e cf 50 3d ea 6e f7 3b
       0.13999096 0.059169244 0.050978713 0.007551064
000100 a5 0d 0f 3e aa c0 b1 3c 2f cf f2 3d b2 67 45 3e
       0.13970049 0.021698315 0.118559234 0.19277838
000110 83 33 1a 3e cd 5b 2e 3d 89 81 df 3d bb 6b ba 3e
       0.15058713 0.042568017 0.10913379 0.36410317
000120 e1 00 98 3e c6 2d 13 3e 41 82 d1 3d 56 f9 de 3c
       0.2968817 0.1437293 0.10229922 0.027218502
000130 1d 8e c3 3d 4f 17 05 3e 35 81 4d 3e de ca 4b 3e
       0.0954859 0.12997173 0.2006882 0.19901606
000140 f4 1b cc 3d 49 d9 9d 3e 9a 8a a2 3e 79 79 1d 3e
       0.09966269 0.30829838 0.3174637 0.1537837
000150 e0 91 af 3e 15 a3 ea 3d a6 18 0c bf 87 27 a3 3d
       0.3429098 0.11456887 -0.5472511 0.079665236
000160 2c 20 41 3e c3 6f ae 3c 79 d2 71 be 01 b5 24 3e
       0.18859929 0.021293527 -0.23615445 0.16084673
000170 3d 99 3b 3e 11 c7 f5 3d 41 d5 0f bd 26 e9 88 3d
       0.18320175 0.120008595 -0.035115484 0.066850945
000180 71 55 16 3d 52 d5 ad 3d 8c a9 1d 3e 6b 70 fb 3c
       0.036702577 0.08487953 0.15396708 0.030693254
000190 63 68 03 be 92 31 f5 3d a7 f0 15 3e 02 06 7b 3d
       -0.12832789 0.119723454 0.14642583 0.061285026
0001a0 ab b4 1e 3d 26 64 d7 bc 20 6b 10 3c 63 d4 25 3e
       0.038746517 -0.026292872 0.008814603 0.161943
0001b0 b8 2c f4 3c 6c eb 52 3e 66 18 91 bb 8e 17 54 3e
       0.02980648 0.20597619 -0.0044279573 0.2071211
0001c0 62 e8 8f 3d 8d 88 46 3e 4d a4 6a 3e d5 a2 65 be
       0.070267454 0.19388027 0.22914238 -0.22425397
0001d0 c7 8d 35 3e ca 1a 63 3e ef 53 de 3e aa 15 1f 3e
       0.17729865 0.22178188 0.4342341 0.15535608

fc3.weight f4 [84, 120]
000000 44 a1 2b bc 85 a7 85 3c 25 52 6b bc 8a 1a 2e 3d
       -0.01047546 0.016315231 -0.0143628465 0.04250578
000010 10 86 40 3c de 67 76 3c 88 97 d7 bd 6d 80 00 bc
       0.011750713 0.015039412 -0.10526949 -0.007843119
000020 ad 97 53 bd 1f e1 68 bc b3 13 18 3d 45 a9 06 bf
       -0.05165832 -0.014213829 0.03712816 -0.52602035
000030 f8 00 d7 3d 44 64 c0 bc 7f 25 69 3d d6 31 94 3d
       0.10498232 -0.02348531 0.056920525 0.07236068
000040 69 66 39 bd 47 75 79 be ca b4 9b 3c 25 91 05 bd
       -0.04526368 -0.24361144 0.019007105 -0.032609124
000050 56 90 c2 3d ab ce 41 bd f6 f0 7e 3c b1 68 37 bd
       0.09500186 -0.047316235 0.015560379 -0.044777576
000060 a1 98 e6 3a 38 87 b6 bd d4 32 90 bd 07 d9 da 3c
       0.0017593094 -0.0891251 -0.07040945 0.026714815
000070 f6 ff 49 bd 0d 59 2c bd c1 a1 44 bb ba b6 22 bd
       -0.04931637 -0.042077113 -0.003000364 -0.039725043
000080 cc 6c 10 bb 59 5f 35 bc 8f b9 57 3c 16 dd a0 3b
       -0.0022037504 -0.011070096 0.013166799 0.004909168
000090 90 ba ca 3b 5f 88 9a 3d aa 4f 32 bc 6a 69 af 3c
       0.0061867908 0.07545542 -0.010883251 0.02141257
0000a0 b2 59 bb be 28 0b c3 be b7 0c ed 3c df 41 5d bd
       -0.3659187 -0.3809445 0.028936727 -0.054017898
0000b0 94 37 17 3d 18 6f e0 3d 3a d1 2c 3d 75 c7 b1 3d
       0.036918238 0.109586895 0.04219172 0.086806215
0000c0 0b 4b 5d 3d a2 40 66 3b d4 01 a4 bc 44 a4 41 be
       0.054026645 0.003513374 -0.020020403 -0.18910319
0000d0 45 a2 45 bd fe d7 c7 3d f1 ef 6d 3d d0 bc 43 bc
       -0.048250455 0.09757994 0.058090154 -0.011946872
0000e0 65 e5 43 3d 79 ba 17 bf ae 25 18 bc d0 27 e8 bd
       0.04782619 -0.5926891 -0.009286327 -0.11335719
0000f0 ee ff 90 bc 0f 44 26 bd 04 da 8a 3c 4b 61 40 be
       -0.017700162 -0.04059225 0.016949661 -0.18787114
000100 02 5a fd bc eb e0 b4 3c 50 7b 90 3c 8b b3 c0 bd
       -0.030926708 0.022079905 0.017636925 -0.09409245
000110 4b ff c1 3b 6b 4d 6f be 37 88 06 3d 2d ca 53 3d
       0.005920326 -0.23369376 0.03284475 0.05170648
000120 3e d3 85 bc 01 4a d3 3c c6 c8 82 bb 9a 55 80 bc
       -0.01633608 0.025792124 -0.003991219 -0.015665818
000130 6b e0 9e 3a 51 72 48 bd d9 d4 5e bd 5f 75 00 bd
       0.0012121325 -0.048937146 -0.054402206 -0.031361934
000140 36 62 5b bc ad d2 3f 3d ad b9 cc 3d e2 27 1c bc
       -0.0133901145 0.046831775 0.09996352 -0.009530993
000150 81 59 98 3c a5 00 0d 3c 81 f4 37 bc 06 14 a1 bc
       0.018597366 0.008606111 -0.011227728 -0.019662868
000160 0a 5c 3b 3d 57 41 b5 bc 92 36 23 bd 59 3b 88 3d
       0.045742072 -0.022125883 -0.039846964 0.06651945
000170 10 0d f3 bc 57 fa 5b bd b3 47 f4 be 88 a9 0d bd
       -0.029669315 -0.05370554 -0.47710952 -0.034585506
000180 fc b2 54 3d 30 07 9e 3b 8e 0b dd bc da 17 b6 3b
       0.051928505 0.004822634 -0.026983049 0.0055570425
000190 7f f8 1b 3c f3 6e 1a 3d b6 94 39 3d b5 17 10 3d
       0.009519695 0.037703466 0.045307837 0.03517886
0001a0 96 0b a1 3d 1a 53 d2 be e5 6a 2b be c0 c2 37 3d
       0.07863538 -0.41079026 -0.16739996 0.044863462
0001b0 bd d6 9a 3b 1f 0c 03 be eb c5 a9 be 5a 16 32 3e
       0.004725306 -0.12797593 -0.33158812 0.17391339
0001c0 04 24 2d 3d 81 b0 0c 3d a5 03 ae 3d 57 2d d0 3c
       0.042270675 0.034348015 0.08496789 0.025412245
0001d0 63 d8 68 bc c7 f0 79 be 28 11 79 3b df 1e 32 3d
       -0.014211747 -0.24408256 0.003800461 0.043486472
0001e0 a8 a6 84 bd b9 f2 b9 bc 76 9b 92 3d 69 8e 9c 3d
       -0.064771 -0.022698747 0.07158558 0.0764435
0001f0 9c 50 c6 3d c6 da b9 3d 9d 7f b3 3d 47 96 3d be
       0.09683344 0.09074931 0.08764575 -0.18514358
000200 97 2f 3a 3c cc b1 a5 bc 04 05 34 3d c8 ed 7d be
       0.011363885 -0.020226382 0.043950096 -0.24797738
000210 54 f6 ff 3d 04 de fc 3d 3f cf c3 3b 57 3e 19 3d
       0.12498155 0.123470336 0.0059756334 0.037412968
000220 c2 16 68 bd 85 29 a6 be 98 fc af 3e 79 b0 31 3d
       -0.05666233 -0.32453552 0.343724 0.043381188
000230 4d e6 1f 3e 01 4d f8 3d 2f 8a 52 bd 47 d9 d8 bc
       0.15615197 0.12124062 -0.051401313 -0.026470793
000240 f4 07 08 3d b6 0c 98 be a6 b0 6b bd c2 4d 93 3c
       0.03321071 -0.29697198 -0.057541512 0.017981414
000250 d4 76 6c be 18 72 0f 3e 46 d1 fb 3c ac 4a 77 ba
       -0.23092204 0.14008367 0.030739438 -0.0009433429
000260 0d a4 e9 39 f0 31 2a bc 1b e7 e3 bd ab 1a af 3d
       0.0004456345 -0.010387883 -0.11128064 0.085500084
000270 86 9a ab 3c c7 ff 38 3b 99 a2 37 3b ad 06 74 3b
       0.020947706 0.0028228627 0.00280205 0.0037235424
000280 7d 42 20 be 31 73 d0 bd d1 61 9d be 46 8c 19 be
       -0.15650363 -0.10178221 -0.3073869 -0.14994916
000290 4a 9c 38 3d 0e db ae 3d e2 56 a2 bc 04 d2 48 3e
       0.045070924 0.08537875 -0.01981682 0.19611365
0002a0 b6 00 21 bc c7 b1 f4 bd d6 3b 86 bd 33 08 64 be
       -0.00982683 -0.11947971 -0.065543815 -0.22268753
0002b0 33 78 fb 3d a0 7d 4b 3d ab 16 2a bd 30 c1 69 3c
       0.122787856 0.049680352 -0.041525524 0.014267251
0002c0 b3 f8 a6 3c e1 97 e7 bd 11 24 11 3d 5c 60 41 be
       0.02038226 -0.113082655 0.035434786 -0.18884414
0002d0 55 74 ba bc 5a 5c 71 be 04 d3 80 bc 00 73 fe bd
       -0.02276055 -0.23570386 -0.01572562 -0.12424278
0002e0 ae b2 07 3c 3c 10 4f 3d 1d b1 eb 3d c8 1f 9a bd
       0.008282347 0.05055259 0.11508391 -0.07525593
0002f0 89 ad da 3d 30 f6 89 bd f7 71 e8 3d b0 a6 f4 bb
       0.106776305 -0.0673641 0.11349862 -0.0074661598
000300 ac 0e fd 3c 84 7a 04 bd 1d 83 09 3e a0 8c c4 bc
       0.030890785 -0.032343403 0.13428922 -0.023992836
000310 99 43 e3 3d 7c 5d c9 3d a8 1a c4 bd f1 ac 5c 3c
       0.110968776 0.09832284 -0.09575397 0.013468967
000320 9e c7 92 3c 7d fe 81 3c 57 9d f5 3c 64 00 0a 3e
       0.01791745 0.01586842 0.029982252 0.13476712
000330 2b ce a4 3d 6d 54 b2 3d 43 f4 0a be 7f 7c 1d 3d
       0.08047136 0.08707509 -0.13569741 0.038448807
000340 48 e6 c0 3d 4c f1 e2 be 04 84 85 3d 4c 1d bf b9
       0.09418923 -0.4432472 0.065193206 -0.00036452187
000350 f0 3d f6 bd 58 25 8f 3d 27 19 05 be 64 a7 05 3e
       -0.120235324 0.06989545 -0.12997876 0.13052136
000360 d0 9c 96 b9 b3 5c 11 3d c1 eb 8d bd c7 62 9b 3d
       -0.00028727064 0.035488795 -0.06929732 0.075872
000370 28 be 20 3d e1 55 cd 3a 5d 9b 85 3d 9d 41 9b bc
       0.039243847 0.0015665853 0.06523774 -0.018952185
000380 47 0d 86 3c ae 45 1a be c5 77 f7 bd 7f a5 59 3d
       0.016363753 -0.15065643 -0.12083391 0.053136345
000390 a6 d1 a8 3d 96 e6 09 be 01 12 53 bd bb 3b f4 3d
       0.08243112 -0.13466868 -0.05153084 0.11925455
0003a0 4c b4 83 3d 17 af 0f 3b 9c bd ce 3c da 86 60 bd
       0.06430873 0.002192443 0.025236897 -0.054816104
0003b0 69 72 00 3d 4d 95 06 be ed 57 cf bd c8 2b 5b 3d
       0.03135911 -0.13142891 -0.101241924 0.05350855
0003c0 aa e0 e8 3b 15 96 a4 3d 21 0f 43 be e8 6e 8c bf
       0.00710686 0.080364384 -0.1904874 -1.0971346
0003d0 53 91 45 be 45 b2 9f be af 8c 8b be 58 a5 00 bd
       -0.19293718 -0.31190696 -0.2725577 -0.031407684
0003e0 5f 24 c3 bc af af 0a bd 93 b3 6d be 88 7b 34 bc
       -0.023821054 -0.03385895 -0.23213033 -0.01101578
0003f0 a5 63 24 bf 78 24 a9 bd fa e1 a5 bd a4 d8 42 bf
       -0.64214545 -0.08258909 -0.08099742 -0.7611182

fc3.bias f4 [84]
000000 34 36 53 3f 5b 5e 8b bf b2 26 fc 3e e1 e6 69 3f
       0.8250458 -1.088817 0.49248272 0.9136792
000010 c9 74 56 3f 0b 40 6b 3f a6 78 69 3f 69 b2 3d bf
       0.8377195 0.91894597 0.9119972 -0.7410036
000020 5e a8 1f 3f e5 2b 41 3f 6b 07 84 3f c1 ff 45 3f
       0.6236628 0.754576 1.0314764 0.77343374
000030 80 1c f1 bf 57 55 21 3f d0 cd 92 3f da 10 47 3f
       -1.8836823 0.63020843 1.1469059 0.7776009
000040 3e 56 ec 3e 5c 5c 00 3f 8d c3 85 3f d3 97 44 3f
       0.46159548 0.5014093 1.0450302 0.76794165
000050 f7 a9 2a 3f bb 19 01 3f a4 e9 2d 3f 9e 2b 04 3f
       0.66665596 0.50429887 0.6793463 0.51629055
000060 16 7e 0a 3f cf c3 7f 3f cd d0 37 3f bf c4 e0 3e
       0.5409864 0.99908155 0.7180298 0.43900105
000070 29 63 35 3f b0 f5 77 3e eb 7f 34 3f 8e 84 6a 3f
       0.7085443 0.24214816 0.7050769 0.9160851
000080 3d 97 5e bf 92 b5 81 3f f5 fa 47 3f 4a 94 0a 3e
       -0.8694952 1.0133536 0.78117305 0.1353313
000090 43 fd 2f be ed d8 6a 3e 8f bd 0b 3f 4a 2e 5b 3f
       -0.17186455 0.22934313 0.5458612 0.85617507
0000a0 7c ad 9e 3f 96 3e f0 be d9 de 8d 3f a1 4b 67 3f
       1.2396693 -0.4692275 1.1083633 0.90349776
0000b0 59 a6 3d 3f bc 9b 1b 3f a3 d8 3d 3f 27 b3 d2 3e
       0.7408195 0.60784507 0.74158686 0.41152307
0000c0 75 ba 6f 3f b0 6b 64 3f 77 0b 1c 3f c8 6c 61 bf
       0.93643886 0.8922682 0.60954994 -0.8805661
0000d0 61 b7 56 3f bf 6f 82 3f 7b f4 a5 3e b5 ec 62 3f
       0.83873564 1.0190352 0.32413086 0.88642436
0000e0 ab 44 45 be 16 76 4e 3f 80 cc 28 3f 75 b4 4d 3f
       -0.19264476 0.80648935 0.6593704 0.8035348
0000f0 93 b9 15 3f c3 08 4d 3e 97 23 0c 3f 86 32 d8 bf
       0.5848629 0.20022874 0.54741806 -1.6890419
000100 f9 90 12 3f bc e4 9a bf 57 69 29 3f 4a 8b 6d 3f
       0.5725246 -1.2101054 0.6617636 0.92790663
000110 76 d0 37 3f 20 af c9 bf fe 08 40 3f 5c 25 68 3e
       0.7180246 -1.5756569 0.7501372 0.22670501
000120 68 a0 58 3f f7 58 42 3f b7 e0 92 be db 1b ac 3e
       0.8461976 0.75917 -0.2868707 0.33615002
000130 2f 47 e3 3e 0a f8 41 3f d1 e2 8f 3f 91 a9 34 3f
       0.44390246 0.757691 1.1241094 0.7057124
000140 b9 12 87 3f 19 bd 33 3f b4 aa 2b bf bd a0 40 3f
       1.0552589 0.70210415 -0.6705735 0.7524527
