Code/CNN/Backup/best_student_normal.pth (torch, 274692 bytes, 14 tensors)

conv1.weight f4 [6, 1, 5, 5]
00000000: b9f0 763b 0d92 103d 22b0 91ba 8d22 da3d
00000010: c2d1 9b3d e104 c13d 5514 733d 3669 0e3e
00000020: 976a 1d3e 6a7b 1bbd f0a1 093e c0fb 73be
00000030: 26d9 a5be 461f 4d3e 58d4 1a3d 68a8 083e
00000040: ddaa c9be 958b 1ebf 8039 debd 2967 eb3d
00000050: bb38 423e fd60 b83b 6fe6 d6bd 7f68 eb3d
00000060: c803 5ebd fa9e b63d 2eb2 113d 0040 93bd
00000070: 0793 27be 59de 463a b0b7 c9bd 1ca7 1e3e
00000080: ed8a b9be 7db1 ce3b 740a 303e d19d 063e
00000090: 2208 95be d5cc 69be c225 393e de85 24be
000000a0: 9e27 38be 7f66 b8bd f354 a8bd 8b6b f93e
000000b0: ea59 633e 099b bb3d 7b9b 2bbb edd1 e7bc
000000c0: 87e3 373e fbe8 2fbc f267 c0ba 7f41 e0bd
000000d0: f99c ab3d 1862 ccbd 787c c8bd 1d1d a3bb
000000e0: dfc4 e93d f74a 16be 2c22 df3d 11a5 673d
000000f0: bf7d 48be 53c8 0fbe b25a 3ebe 82b5 2abe
00000100: a6fc 0ebe c3a2 30be 5634 b33d 4d28 0bbe
00000110: 0bb5 37be 0a5f fdbd 5049 fdbd 7d42 e9bc
00000120: d76c 2fbe e770 c8bc 2caa 4abe 29ea 15bd
00000130: ff5e 75bd 434f 813d dc3d 023d 73f8 c2b8
00000140: ba02 f83d 48f9 db3d 997c 283c 9302 543e
00000150: 01a6 4e3e 6eb2 06bd 225c 9cbd 6ef5 4f3e
00000160: 74da 873e c98e 2e3c 07b1 223e be46 ef3d
00000170: 5729 363e 85f4 8dbd 9937 f3be 4f24 6a3d
00000180: c29b 27be 7169 0fbe 05c3 d4be aadb 57be
00000190: ec7d 3d3d a07b 563d 9f13 73be fca7 4fbe
000001a0: b134 6a3d e0cd dfba f795 e73c d2e8 29be
000001b0: d45e 2bbe 4054 703c 8e82 82bc 327d d33e
000001c0: 026c 253e 72d4 5bbe 379f 3ebe 0f58 093d
000001d0: 5f87 033e d6f3 ca3e b8de f13d 8750 c53c
000001e0: 76a5 48be 9f91 51be ca51 283e c874 d7bc
000001f0: 13d0 f53a 191c aebd 8595 913e 06d5 d0bd
00000200: 1b8f 29be 683b 33bd e29a 2d3e 8b51 d13e
00000210: 2037 f3bc c069 2fbc 7003 a1bd 6dcd 0cbe
00000220: c0a3 423e e9bb 4dbe 7825 a8bd e647 51bd
00000230: 27e8 653c e4f3 cc3d 5896 50be ce4c b13d
00000240: a8c9 a33d bfd2 f2bd e7f9 353e 92a5 f3bb
00000250: 404b 9abd da38 12be
0.0037680103 0.035295535 -0.0011115114 0.10651121 0.076083675 0.09424759 0.059345562 0.13907322
0.15372692 -0.037959494 0.1344068 -0.23826504 -0.32392234 0.20031461 0.037800163 0.13345492
-0.3938817 -0.61931735 -0.10850811 0.114942856 0.18966953 0.0056267963 -0.104931705 0.114945404
-0.054202825 0.08917041 0.035570316 -0.071899414 -0.1636468 0.0007586233 -0.09849489 0.15493435
-0.36238804 0.0063077793 0.17191488 0.1314614 -0.29107767 -0.22832043 0.1808081 -0.16066691
-0.17983863 -0.090039246 -0.08219328 0.4871486 0.22202268 0.0916043 -0.0026185203 -0.028298343
0.17957889 -0.010736699 -0.0014679416 -0.109499924 0.083795495 -0.099796474 -0.097893655 -0.004977836
0.11414503 -0.14677034 0.1089519 0.056553904 -0.19579218 -0.14041261 -0.18589285 -0.16670802
-0.13963565 -0.17249589 0.08750217 -0.13589592 -0.17940156 -0.12371643 -0.12367499 -0.028474087
-0.17131363 -0.024467899 -0.19791478 -0.036600266 -0.05990505 0.06313946 0.031797275 -9.296918e-05
0.12109895 0.10740906 0.010283613 0.20704107 0.20180513 -0.032885008 -0.076347604 0.20308468
0.26533854 0.01065416 0.15887843 0.11683415 0.17789207 -0.06931404 -0.47503355 0.057163533
-0.1636801 -0.14005066 -0.41555038 -0.21079889 0.046262667 0.05236399 -0.23737954 -0.20278925
0.057179157 -0.0017074905 0.028269751 -0.1659272 -0.16735393 0.014668524 -0.015931394 0.41306454
0.16154483 -0.2146776 -0.18615423 0.033531245 0.12844609 0.39639157 0.11810058 0.02408625
-0.19594368 -0.20465706 0.1643745 -0.026300803 0.0018754028 -0.08501453 0.28434387 -0.10196881
-0.16558497 -0.043757826 0.16953614 0.40882525 -0.029689372 -0.010706365 -0.07861984 -0.13750239
0.19007778 -0.20091213 -0.082102716 -0.05109396 0.0140324 0.10007456 -0.20369852 0.086572275
0.07997447 -0.11856603 0.17771111 -0.007435509 -0.07533884 -0.142795

conv1.bias f4 [6]
00000000: 1067 873d 8897 433b cbc1 23be 8a70 53bc
00000010: 998f 45bc fa6d 5cbd
0.066114545 0.0029844958 -0.15991895 -0.012905249 -0.012058162 -0.05381582

conv2.weight f4 [16, 6, 5, 5]
00000000: 72c7 01be a4ac 113d fae9 233c 428b 443d
00000010: 51cc bf3d 3236 88bd ab12 1b3e 58d6 b7bc
00000020: 5dc0 203e fbc1 163e fffa c2bd 06de 1cbe
00000030: ce67 b73a 29ce 813e c4a2 013d 4008 8e3d
00000040: 6862 08be 779b 103d 6c00 5a3f 176a 0a3e
00000050: ba67 373e bcc3 103d aca5 cbbd 4c28 67bd
00000060: e92f 13be af3d 90bd 9476 b2bd eb6e daba
00000070: 2ae7 1fbc a579 75bc f2b7 cd3d 75cb 34bd
00000080: 1b5c 19be 4e75 2fbe fe3f 1d3b 4f1c 4abd
00000090: ff64 72be 7071 f9be 8647 b2bd d468 44bd
000000a0: aa84 49bd 812a 80be 6158 13be 150f 863e
000000b0: b0e9 48bc 4840 053c c623 1bbe 0617 b1bd
000000c0: 5b0d 4a3e 2071 a23d 8b5e 73bd c9c6 793d
000000d0: 06ad 9cbd 7a70 8b3d 5c52 313d 202e 063d
000000e0: 201c 84bd 5493 ae3c 20da 81bd 4502 da3c
000000f0: 2040 8c3b c4af b63c 19ab 45bc b03a 0cbb
00000100: 879b 83bd 8e85 993d 2c29 813d bcad 78bd
00000110: 0029 b7bb ab60 8d3d 47e9 66bd 34e0 2c3d
00000120: f9f7 dabc 8aa1 993d 1d17 723d 45ac b73d
00000130: 0254 49bc cd66 663d 471c 4cbd 35e0 00bd
00000140: 7180 e63d bc02 093d f499 b23d 96ee 4ebd
00000150: b518 b13c 46e3 2f3c a7a6 b13a b028 373e
00000160: 9389 febd 98b5 1abe 555e 2bbd efb4 1abc
00000170: a824 9e3e f35d 8cbd 2ef0 2dbe b03f 13bc
00000180: 57a2 f6bd 30f6 40bd 2204 14bd 5290 f93c
00000190: 140a 6dbc 3eed 2b3d 4638 66bb 946f 8a3b
000001a0: 796e 0b3c bcc1 a6bc c51e 493d 4396 75bd
000001b0: 5117 d6bd 3764 c3bb d1f2 39bd 93a6 4ebd
000001c0: 7603 62be e7e6 4abe 3cbc b0bd 569a 123c
000001d0: e85a 1cbd b360 36bc 9580 76bd 60e2 39be
000001e0: 21e9 333e c9a9 b93d f0eb 403e 6e63 013e
000001f0: cb39 21be 6fc2 a73a e8e0 e4bd c0d9 2dbe
00000200: e796 0ebe 6a3e 97bd 5236 4dbd 2d36 d2bd
00000210: 9a56 9cbd 237c 08be 4ca6 b6bd af23 143d
00000220: 0386 073e b2f1 19bc d935 e4bd d376 eb3c
00000230: f885 793d ea12 b63c cb8f 3cbc 84c0 a0bd
00000240: d884 15be 38a9 133e 9fa5 80bd cf20 303d
00000250: ea5d ef3d 29f5 99be 64f5 10be 95f5 babd
00000260: 3a0d 073e bfc9 a9bd 1ea9 1f3e 5ae4 10be
00000270: 0a96 07bf 3614 d8be efed 9e3d 49fd bd3e
00000280: cde5 70bd a27a 29be afb1 33be 4476 173e
00000290: ef47 8dbd 8ba5 8a3d dd60 f63e 1c94 983e
000002a0: deba 3c3e 28f6 45be 0167 abbe bbef 03be
000002b0: a8ba 31bd 910d ca3c 89b2 193d f944 8c3b
000002c0: 6c18 1fbd 83f8 49be 03bc 6fbd 99fa babd
000002d0: a210 97be 7a50 c6be 4b15 a0bd 5e8e 03bd
000002e0: aed9 3e3e d1b3 04be 2879 27be d986 b0bc
000002f0: 96b0 013e 1d1e bfbc 1979 7b3e 6d30 843e
00000300: 0e4c 3c3e 2f69 913c e151 57be 3b49 0c3d
00000310: e68a a63d 8f81 07bd d6f1 52bd 0a06 dc3d
00000320: d575 643d 02a8 92bd a2d4 4dbd 504a bcbb
00000330: 6c9c 0bbd 125b 173d 2a28 b6bc d8c0 8abc
00000340: 5865 39bc c9c4 423d c42e 0e3d 7604 983d
00000350: 7850 a03d ed52 7c3d 4c4e 9f3c 31d2 4a3c
00000360: 0d59 da3c b00d 11bb 1c01 51bd 65b1 45bd
00000370: cc99 31bd 03c6 97bd f031 293d 2fd1 50bd
00000380: e950 a7bd 1dc1 9b3d 0209 b33d 66e6 09be
00000390: 9bd9 7c3d 8524 28be d1f7 e3bd 0c6e 64bd
000003a0: dce0 c63d 42ab 403e 9747 07bd 8414 ac3d
000003b0: 904e cf3d 5ed7 9d3d 03b2 a2bd ce24 92bc
000003c0: 55bd 283e 6ecf d0bc 918f 8e3d 4444 463c
000003d0: e30e 8b3d 1f0e 07bd 2259 d23d 36cb 5a3c
000003e0: 94c1 a53d 763e 82bb b1f2 783d 1c91 5a3c
000003f0: 2193 be3c f714 8f3c 54ea f2bc f16b 00be
-0.12673739 0.035565034 0.010004515 0.04798437 0.09365142 -0.06650962 0.1514384 -0.022441074
0.15698381 0.14722435 -0.0952053 -0.1531907 0.0013992728 0.253526 0.031649366 0.06935167
-0.13318789 0.035304513 0.85156894 0.13517033 0.17910662 0.035342917 -0.09943709 -0.056434914
-0.14373745 -0.07043015 -0.08714023 -0.0016665136 -0.009759704 -0.014982616 0.100448504 -0.044139344
-0.14976542 -0.17134592 0.002399444 -0.049343403 -0.2367134 -0.48719358 -0.08705048 -0.047951534
-0.049198784 -0.25032428 -0.14389183 0.26183382 -0.012262747 0.008133002 -0.15150365 -0.086469695
0.19731657 0.07931733 -0.059416335 0.060980592 -0.07650189 0.068085626 0.043291435 0.032758832
-0.06450677 0.021310486 -0.06340432 0.02661241 0.0042801052 0.022300608 -0.012064719 -0.0021397285
-0.06426149 0.07496177 0.06306681 -0.06071256 -0.0055896044 0.069032036 -0.056374814 0.042206004
-0.02672957 0.07501514 0.059104074 0.08968405 -0.012288095 0.056250382 -0.049831655 -0.03146382
0.11254967 0.033449873 0.087207705 -0.050520502 0.021618227 0.010735339 0.0013553695 0.17886615
-0.12428584 -0.15108335 -0.04183801 -0.009442552 0.30887341 -0.06853857 -0.16986153 -0.008987352
-0.120426826 -0.047109783 -0.036136754 0.030464325 -0.014467735 0.0419743 -0.0035128756 0.004224727
0.008510225 -0.020356052 0.04910161 -0.059957754 -0.10453666 -0.0059628743 -0.045397583 -0.050451826
-0.22071633 -0.19814645 -0.08629653 0.008947929 -0.038172632 -0.011131453 -0.06018122 -0.18152761
0.175694 0.09065587 0.18840003 0.12635586 -0.15744703 0.0012799035 -0.1117571 -0.16977596
-0.13924752 -0.073849514 -0.050100632 -0.102642395 -0.076337054 -0.13328604 -0.08918437 0.036166843
0.13234715 -0.009396004 -0.11143083 0.028743183 0.06091878 0.022225816 -0.011508892 -0.078492194
-0.14601457 0.1442002 -0.0628159 0.04300004 0.116878346 -0.30069855 -0.14156109 -0.09128872
0.1318864 -0.08290433 0.15591857 -0.14149609 -0.52963316 -0.4220292 0.07760226 0.37107304
-0.058812905 -0.16550687 -0.1754825 0.14791209 -0.06898486 0.06769856 0.48120776 0.29800498
0.18430659 -0.19332182 -0.33477023 -0.12884419 -0.0433909 0.024664672 0.03752378 0.004280683
-0.03884165 -0.19723706 -0.05852891 -0.09129829 -0.29504877 -0.38733274 -0.07816561 -0.032118194
0.18637726 -0.1295922 -0.16354811 -0.021548675 0.12665018 -0.023329789 0.24557914 0.25818196
0.18388388 0.01775035 -0.21027328 0.034249526 0.081319615 -0.03308254 -0.051500164 0.10743339
0.055776436 -0.07160951 -0.05025161 -0.0057461634 -0.034084722 0.036952086 -0.022235949 -0.016937658
-0.011315666 0.04755095 0.034712568 0.07422726 0.07827848 0.06160252 0.019446515 0.012379215
0.02665379 -0.0022133403 -0.05102645 -0.04826488 -0.043359563 -0.074108146 0.04130739 -0.050980743
-0.08169729 0.07605193 0.087419525 -0.13466796 0.061730962 -0.16420181 -0.111312516 -0.05576901
0.09710857 0.1881533 -0.033027258 0.084023505 0.101224065 0.07707094 -0.07944109 -0.017839815
0.16478474 -0.025489535 0.06960977 0.012101237 0.06789949 -0.03297245 0.10270907 0.013354113
0.08093563 -0.003974731 0.060778324 0.013340261 0.023263516 0.017466052 -0.029652752 -0.12541176

conv2.bias f4 [16]
00000000: 8a9a fdbb 3490 31bc 1167 bcbc fef0 4a3c
00000010: bf2a 6ebb 719d 0c3b 26d0 c23c 965c bfbd
00000020: a0d0 61bd 2e43 b2bc 7e39 9cbd 01f7 92bc
00000030: 7146 413d 2925 cebd c97c b1bc 8fa8 b03c
-0.0077393698 -0.010837603 -0.022998365 0.012386559 -0.0036341397 0.0021456147 0.023780894 -0.09343831
-0.0551306 -0.02176055 -0.07628153 -0.017940046 0.04718632 -0.100656815 -0.021665948 0.02156475

conv3.weight f4 [32, 16, 3, 3]
00000000: e3ed 163e 5b3f d43c 69c9 98bc c2e8 0ebe
00000010: 82d6 2dbe 7601 5ebd 3215 37bd fc7e 113e
00000020: 57c0 aa3d b222 57bc c352 19be 4110 71bd
00000030: 4d3d 3cbe 82e7 20be 36a0 ddbd b835 a5bd
00000040: ba06 cdbc 4f69 09be 4245 fb3c 058a 7b3d
00000050: 518a 05be bf2a 93bd 5526 68be 040e 08be
00000060: 8a76 be3c 4317 b2bd e766 583c 73f3 0a3d
00000070: 6aaa f2bd 0422 2abe 633c a43b 0daa a7be
00000080: 9a96 ddbe 8c12 1dbd 0cb2 c2bd 0bf9 903d
00000090: d79d 1d3e 792e ea3c be20 a23e 04c3 0e3f
000000a0: f9b9 1abe 2f60 5bbe d5f9 d5be c6ee 013e
000000b0: 623c da3e 3dff a53d 83d5 9c3b baaa a2bd
000000c0: 48bf 693d df1c 0ebe 7679 d4bd f3e2 363d
000000d0: 012b f3bc ac19 7b3d 300a 19be b508 303c
000000e0: 430e 803c e040 14be aee8 c83d 997e a8bc
000000f0: f7aa eb3d ce84 9a3d 0ce2 42bc 069e 26bc
00000100: 5005 3bbc c1ff de3d ec99 453b 3212 a03d
00000110: 9fae 793c 256c 9d3d 3fbf 653d 5514 2ebd
00000120: f63d b93c e0da 263c a325 783e c76d dfbc
00000130: d462 75bd 613b 543e 89c6 1b3d 4fdb 48bd
00000140: 8b28 56bd f091 87bd 55d9 d93d f281 c83b
00000150: e933 89bc c699 48be 1d47 02bc 3430 c4bd
00000160: 0680 18be 385e 2a3c 5e26 203d e047 f03c
00000170: 5a74 973b 369d 9cbd 1ff7 113d c6a0 c7bb
00000180: ad0f 8cbe a436 1bbe ab89 83bb 5f97 3c3e
00000190: ab7d b43d ec19 4b3e 769e 08be ae3c 63be
000001a0: e33b a9bc a1c8 383e d04a 3cbe 5399 1abe
000001b0: 484b 7d3d a6ce 073b 2d98 913c 685b e2bc
000001c0: 7bac 97bd dbb9 203d 7a80 56bd 7c1e 90bd
000001d0: b373 26bd 5faf 223e 0726 83be 83fa 5dbd
000001e0: 47c4 873d e37c 62be 9896 70be ff00 ddbd
000001f0: b372 4e3d 40e5 72bd a351 9a3e 9b12 243e
00000200: a126 2c3e 0da6 423d 758d 12be aa02 20bd
00000210: 83f2 79be 4348 a4be 57c6 bd3e ae80 2a3e
00000220: 613d 7abd a602 58bd 3e39 31be e74a e7bd
00000230: 5993 b23d e674 de3d 7726 a23c 3f90 773e
00000240: 61ac 1bbe 4ef3 3ebe 0688 ad3c e392 cabd
00000250: 468d 12bd d4d0 0a3e a025 69bb 0232 833b
00000260: 748e c4bd 10d3 11bd 0787 00be 5d34 a03d
00000270: a215 37be 64f5 2abd 2145 b43e 3886 8bbe
00000280: f6f9 2abe 25e0 0a3c f1a2 443e f441 b73e
00000290: 0f44 583e 5aed 223e 17fb f43d d932 463e
000002a0: 4bab aa3d 21d4 9ebe e999 263d ef8d 643e
000002b0: 843a 073e 009c d33e 7a2a 233e 6a24 423d
000002c0: 10fe 4b3e 726f 0f3e d4c5 2abe 7a3d 47be
000002d0: a2e7 36be e5b3 27bd fa0a 3ebe e857 84be
000002e0: 0fdb 14be 0f8f debd 7f0b 04be 2e1f debd
000002f0: 7379 2bbe c1c7 473e afcd 023d 1b73 d9bd
00000300: 42f5 c53b 9dec eebd d53e 1ebe 99dd 5c3d
00000310: e000 9ebd ccd5 053d 8038 91bb 4b0a e4bd
00000320: fee6 6dbe c7e9 18be cd10 a0be 2cca a3be
00000330: d3e0 cdbc deca de3c 36b9 5d3e 8db6 cabd
00000340: d7bb bf3d a836 b6bd ec53 bbbd cb16 843d
00000350: 3167 a5bb 5b6f 23bd c47d 183d cc34 82bd
00000360: 169f 1c3e 205c 123d 9ed1 bfbd cb6c 883c
00000370: fb17 29be 2494 52be 2231 39be 0f23 1fbe
00000380: dc7e f53d 3cd1 ac3c 3515 afbd f7ff 1fbe
00000390: 7364 b53d 3582 c13d ca0a b7bd d83b b2bd
000003a0: a0e3 f93c 6b7a 9a3d 2613 ec3d 9ca8 0bbd
000003b0: 9bb8 6abd f4f9 623d 1e3a 673d 6efb e93c
000003c0: 138d e0bd 3cfc a03d 2312 c63d 2044 61be
000003d0: de49 17be ec49 19be b684 60be 0ffb 49be
000003e0: fa86 86be 45ca 41be 4443 c2be 70b2 78be
000003f0: 9efb a33c 424b 3c3e 01e9 b5bd ea9d abbd
0.14739184 0.025909116 -0.018650727 -0.13955978 -0.1697636 -0.054200612 -0.044697948 0.14208597
0.08337467 -0.013130831 -0.14972977 -0.05885339 -0.1838276 -0.15713313 -0.108215734 -0.08066887
-0.025027622 -0.13419078 0.030672673 0.061410923 -0.13041045 -0.071858875 -0.22670873 -0.13286597
0.023249883 -0.08695843 0.013208128 0.033923578 -0.1184891 -0.16614538 0.0050120815 -0.32746926
-0.43278962 -0.038347766 -0.09506616 0.07078751 0.15392242 0.028586613 0.31665605 0.5576632
-0.15110005 -0.2142341 -0.4179217 0.12688741 0.42624193 0.081053235 0.004786195 -0.0794272
0.057067186 -0.13878201 -0.10374729 0.04465003 -0.029683592 0.06130378 -0.14945292 0.010744263
0.0156318 -0.14477873 0.09810005 -0.020568179 0.11507218 0.07544862 -0.011894714 -0.010169512
-0.011414841 0.10888625 0.003015156 0.078159705 0.015239387 0.076866426 0.05609059 -0.04249986
0.022612553 0.01018402 0.24233107 -0.027274026 -0.059908703 0.20725776 0.038031135 -0.049037274
-0.05228476 -0.06619632 0.10637156 0.0061190063 -0.016748386 -0.1958991 -0.007951525 -0.095795065
-0.14892587 0.01039844 0.03909909 0.029331148 0.0046220245 -0.07647173 0.035636064 -0.0060921637
-0.2735571 -0.15157562 -0.004014214 0.18417118 0.08813032 0.19834107 -0.13341698 -0.22191116
-0.020658439 0.18045284 -0.18387914 -0.15097551 0.061839372 0.0020722537 0.017772758 -0.027631477
-0.07405945 0.039239746 -0.05236862 -0.070370644 -0.040637683 0.15887211 -0.2561495 -0.054193985
0.06629234 -0.22117953 -0.23494947 -0.107912056 0.050402354 -0.05930066 0.3014041 0.16022722
0.16811611 0.04752164 -0.14311774 -0.03906504 -0.24408917 -0.3208638 0.37065384 0.1665065
-0.06109369 -0.0527369 -0.17306992 -0.11293583 0.087195106 0.1086214 0.019793732 0.2417612
-0.15202476 -0.18647501 0.021183025 -0.09891298 -0.03577926 0.13556224 -0.0035575405 0.004003764
-0.09597483 -0.035601676 -0.12551509 0.078224875 -0.17879346 -0.04173793 0.3520899 -0.27250838
-0.16696915 0.008476292 0.19202782 0.35792506 0.21119712 0.15910855 0.11961954 0.19355334
0.08333453 -0.31021217 0.040674124 0.22319768 0.13205916 0.41329956 0.15934172 0.04739801
0.19921136 0.14007357 -0.16677028 -0.19457045 -0.17861798 -0.040943045 -0.18558875 -0.25848317
-0.14536689 -0.1086713 -0.1289501 -0.10845791 -0.16745548 0.19509794 0.031934436 -0.10617658
0.0060412 -0.11666224 -0.15453656 0.05392227 -0.07715011 0.032674596 -0.004431784 -0.11134776
-0.23232648 -0.14932929 -0.31262818 -0.31990182 -0.025131619 0.027196344 0.21652684 -0.098981
0.093619995 -0.088971436 -0.09146866 0.0644966 -0.0050477018 -0.03990112 0.037229314 -0.063577265
0.15295061 0.03573239 -0.09366153 0.016653439 -0.16513054 -0.20564324 -0.18085149 -0.15540718
0.11987087 0.021095864 -0.08548967 -0.15624987 0.0885705 0.09448663 -0.08937605 -0.087028205
0.030504048 0.075428806 0.1152709 -0.034096345 -0.05730496 0.055414155 0.05645191 0.028562274
-0.10964408 0.0786061 0.09671428 -0.21998644 -0.14774272 -0.14969605 -0.21925625 -0.19724678
-0.26274854 -0.18924816 -0.37941945 -0.24286819 0.020017441 0.18388084 -0.088823326 -0.08379729

conv3.bias f4 [32]
00000000: 6f56 1d3c fbf0 d33b 066f 9abc ca1d 7c3d
00000010: e0d9 a3bc 31fc 1b3d cf6d a33b d424 e03d
00000020: 199d d6bd fa41 6a3c 80cf e93a e5b2 5ebc
00000030: 69bd 24be 467f 133e 04d6 733d 0c63 8e3b
00000040: 0ecc af3c 1fd1 d3bb 35c6 833d 0ad1 ea3b
00000050: 86e8 a0bb 52fc b1bd 9153 7ebe d886 c2bc
00000060: f94b 023c e4fc 723d f771 c33d 6558 7b3d
00000070: d7f2 8a39 cd5e ac3d 07d2 b7bc 0179 55bd
0.009603127 0.006467936 -0.018851768 0.061551847 -0.020001352 0.038082305 0.0049874554 0.109445244
-0.10479183 0.014297957 0.0017838329 -0.0135924565 -0.16087879 0.1440402 0.059530273 0.0043453034
0.021459606 -0.006464138 0.06434289 0.0071660327 -0.0049105315 -0.086907044 -0.24836566 -0.02374594
0.007952684 0.059323207 0.095432214 0.061363596 0.0002650234 0.08416519 -0.022439016 -0.05211735

fc1.weight f4 [120, 288]
00000000: a4ba a53d baba 02bd f563 1cbe 289b 48bd
00000010: 2835 2bbe 849a 30be 2773 30bd bc8a 9f3d
00000020: ca03 dcbd dcb3 ab3d bd1f 1b3d e6cd 073e
00000030: 1564 233e a4e2 403e 2590 8c3d df60 c13d
00000040: acd3 903d 009d a53d 52d2 663a 219e 123e
00000050: 1fd3 683e e4a8 f3bd d5cb 303b e4a0 8b3d
00000060: 8524 dfbd e1a8 2abe 74cb 723d babe 253d
00000070: 26f0 383c cb57 e2bd 382c 1dbe 0654 d7bd
00000080: 2dc9 5abd 7997 0bbc a116 4cbc ee23 86bd
00000090: 9912 153d 3f2d f73c 9e83 3ebc fb79 e13d
000000a0: dbe7 053e accb e53d c8e0 bbbd e816 49bd
000000b0: 8b1d 013d 4723 c33d 4fde 9c3d 6cdd 533d
000000c0: 2b02 b93d dc8c 1bbe d564 8abc b2a8 16bd
000000d0: 96e0 df3a b0ad 853d 0285 5e3d 50c6 7cbd
000000e0: 4f57 623c 6092 8a3c b3e1 903c b252 37bd
000000f0: 9ecd 4e3d 8c6d 3c3d 1535 20bd 5453 4e3c
00000100: 0e25 2dbe 70bc 8ebe 6031 e3bc 7aa7 d5bd
00000110: f3ea 5bbb 8165 3fbd a966 9d3b 09eb 60be
00000120: b6f0 d83d 0416 383e 6b52 3a3d f101 0fbe
00000130: 8d84 2cbc 3d7c 313e b7e8 ff3d 283b da3c
00000140: 4d39 653e c980 223e 1a3a e53d 724e a53d
00000150: aae4 a13d d199 bb3d bd3c 1cbd 3aa7 abbd
00000160: 1cce 253e 2f67 493e 54df 343a d060 c33c
00000170: 7c73 3b3d 0016 3d3d 3389 8fbc 1584 513d
00000180: ce8e 563c ebbf 653d e6d2 0e3d 4a97 0d3e
00000190: e428 0c3e 6991 193d 34df 163d 50cb 253d
000001a0: a2b0 d03b cf1a b03d 485f b6bc 1ef4 943d
000001b0: 00c0 bcbd ff30 34bc 6cef c83c 53f1 863d
000001c0: 61a0 a73d 50d0 4c3e 97b0 21be 996c 06be
000001d0: c568 ba3c 52d6 1cbe 265b cabd 933e 53bd
000001e0: 0382 23be 63c4 9e3d 73e1 c1bc 9c93 5cbd
000001f0: 6524 c63d 3130 d9bd 31fa a1bd 1bb0 4ebe
00000200: 3a24 c93c d7d6 30bd 0b16 04be 7767 17be
00000210: c92e 5ebe 8b9b 1ebe b1d5 a6bd 06b3 89bd
00000220: 672f a1bd 7d47 2abe 7963 12bc 3b49 d6bc
00000230: 2384 003e d822 10be 62e3 b83a e03f acbb
00000240: 1dbe 1cbe af22 b13d 6080 ffbd cc93 993c
00000250: 5e43 f13d 52b3 663d df7d febd 1778 ffbc
00000260: 628d 92bd 4fca 43be 15a3 21be cbe8 35be
00000270: 184c e4bd 1bee 0bbe 026d cbbd 2eeb f1bd
00000280: 4cdb 2abe 8685 73be 3155 43be 8210 8cbd
00000290: 2457 23be e10f 59bd b964 93bd aa3e 83be
000002a0: cd1f 73be 7a3c 6cbe 05c0 01be cf3a 34be
000002b0: 49cf 27be 060b 4bbc a3a5 903d 19f9 0bbe
000002c0: a2b1 393d 79bc 483e c20f 06bb 500b 21bc
000002d0: bd04 91bd 415c 88bd 625f 32be 40e5 87bd
000002e0: cb2c 503d 849b 21be 94d1 c1bd b351 a1bc
000002f0: 526c acbd fdd8 003e b899 e73d 869e 583e
00000300: c120 ef3d f260 223d 4573 d73d 9a09 873d
00000310: b795 823c 3872 973d a173 14bd f2a1 e1bc
00000320: 8816 903b ad36 773d 8d6b a73c d4e3 813d
00000330: fb20 d5bd 5f41 aebb d81f bf3c 37e4 cf3d
00000340: 3a81 2b3e ce30 1c3e c40b 003e 8d75 f3bc
00000350: c4fd a23d bd9d 1b3d 24df 8a3d c60a 323d
00000360: 6170 a03d a3a5 8fbd 2e8a 3f3e 3410 0f3e
00000370: 933e fa3c ec2f a53d 231d 863d 0d42 953c
00000380: 4eb1 a7bd 6e4b babd 2c09 c03c 0c7b c3bd
00000390: 2da7 f0bb 1393 e13d 50fc 113e daf0 62be
000003a0: 5bfe 8abd 0de7 a2bc 0bb9 bcbd 35db 23be
000003b0: a506 6bbd 04de 02be cee1 1cbe fce1 64be
000003c0: e787 66be 7d09 e0bd 629c 2fbe 0445 823c
000003d0: 34bd 023e e87d a5bc b59e b13d 3f37 263e
000003e0: c075 013e 4fe0 dfbc 05ab 473d 5d99 87bb
000003f0: fcda 7cbd 43e1 09be ff67 1b3d 419b a1bd
0.080922395 -0.031916358 -0.15272506 -0.048976094 -0.16719496 -0.17246443 -0.043078568 0.07790133
-0.1074291 0.08383915 0.037872065 0.13262138 0.15956147 0.18836457 0.06863431 0.09442305
0.07071623 0.08086586 0.0008805144 0.14318134 0.22736786 -0.11897448 0.0026976962 0.06817797
-0.108956374 -0.16665985 0.05927606 0.040465094 0.011287725 -0.110519014 -0.153489 -0.10514073
-0.053414512 -0.008520001 -0.012456567 -0.06549822 0.03639469 0.030172942 -0.01162806 0.11009594
0.13076727 0.11220488 -0.09173733 -0.04909411 0.031522315 0.09528213 0.076595895 0.051724836
0.09033617 -0.15190452 -0.016893784 -0.036781974 0.0017080482 0.06527269 0.054326065 -0.061712563
0.013814761 0.0169155 0.017685747 -0.0447566 0.05048906 0.04600291 -0.039113123 0.012593109
-0.16908666 -0.2787814 -0.027733505 -0.10432334 -0.0033556789 -0.04672766 0.004803498 -0.21964659
0.10592787 0.17977148 0.045488756 -0.13965584 -0.010529649 0.1733255 0.12495559 0.026639536
0.2238514 0.1586944 0.111927226 0.08071603 0.07904942 0.091601975 -0.038143862 -0.08381505
0.16191906 0.19668268 0.00068997336 0.023849875 0.04576443 0.04616356 -0.017521476 0.051151354
0.013095571 0.05609123 0.034869097 0.13827243 0.13687474 0.03749219 0.036833957 0.040477097
0.0063687125 0.08598863 -0.02226223 0.07273124 -0.092163086 -0.01099801 0.024528228 0.06588998
0.08184887 0.2000134 -0.1579002 -0.13127364 0.022755036 -0.15316132 -0.098806664 -0.051573347
-0.15967564 0.077523015 -0.023667073 -0.05385171 0.096749105 -0.10604895 -0.07909048 -0.20184366
0.024553407 -0.043173637 -0.12899034 -0.14785562 -0.21697535 -0.15489022 -0.08146227 -0.06723599
-0.078703694 -0.16628833 -0.008934849 -0.026157966 0.12550406 -0.14075792 0.0014105851 -0.005256638
-0.15306897 0.086491935 -0.124756575 0.018747233 0.117804274 0.056323357 -0.12426352 -0.031185193
-0.07155873 -0.19120143 -0.15784867 -0.17764585 -0.11147326 -0.13665049 -0.09932901 -0.11812435
-0.16685218 -0.23781404 -0.19075467 -0.06839086 -0.1595121 -0.05299366 -0.07196946 -0.25633746
-0.237426 -0.23069945 -0.12670906 -0.17600559 -0.16387667 -0.012392765 0.07062843 -0.13669242
0.04533542 0.19603147 -0.002045617 -0.009829357 -0.07080982 -0.06658221 -0.17419198 -0.06635523
0.050823968 -0.15781981 -0.09463802 -0.019692278 -0.08419098 0.12582774 0.113086164 0.21154222
0.11676169 0.039643236 0.10520033 0.06593628 0.01594053 0.073948324 -0.036243085 -0.027543042
0.004397217 0.060354877 0.020437026 0.06342283 -0.10406681 -0.0053178514 0.023330614 0.101509504
0.16748515 0.15252993 0.12504488 -0.029719139 0.07958558 0.037992228 0.06780842 0.043467306
0.078339346 -0.070140146 0.18705055 0.13971025 0.030547416 0.08065781 0.06548526 0.018219972
-0.08188115 -0.09096418 0.023441873 -0.09544954 -0.0073441477 0.1101438 0.14256406 -0.2216219
-0.06786796 -0.019885564 -0.09214982 -0.1600159 -0.057379384 -0.12780005 -0.15320513 -0.22351831
-0.2251278 -0.1093931 -0.17149499 0.01590205 0.12767488 -0.020201638 0.08672849 0.16232012
0.12642574 -0.027328638 0.04874708 -0.0041381554 -0.061732277 -0.13464837 0.037940975 -0.078909405

fc1.bias f4 [120]
00000000: d913 abbd ca1c 043e fc32 e53d 988b ff3c
00000010: 2445 17be 1a67 b43c f4dc 17bd 4500 8bbd
00000020: e5e3 b53d ffc3 06bd a33c 083e 1278 3b3c
00000030: 2baa f13d 0448 c63d 8f12 343d a717 c7bd
00000040: 109f 4bba 0f52 4abd 9006 5fbc a512 aa3d
00000050: 83eb b13d e1ec 153e 7d15 433d 0884 76bc
00000060: 687b 9abd 55ec 4c3d 800d 85bd 257a c33d
00000070: 8156 d63d a0e3 b73d 2aaf a1bd faf7 43bc
00000080: a8bb 593b 3e43 a33d 13d4 353c 7872 5d3d
00000090: d9f5 1a3d 06ea 013e f67f 5cbd 3442 4fbd
000000a0: 6ae1 a63d f059 dc3d aef9 2cbd 364d 64bc
000000b0: 4a70 eb3d ba8e a7bd 6640 4abc 3acf 51bd
000000c0: 3ec7 893d c3bb 9a3d 6abe f13d b53e 353d
000000d0: 944f ef3d df2a ce3d cd90 663d 52fd b53d
000000e0: 6803 3abd fe9c bc3d 783c ba3d 95e9 8abd
000000f0: 1e90 4d3d 6bea 88bd 5add 963d 6374 f8bd
00000100: 54af fe3c 40fc 87bd bf4e 1f3d f04d 9dbd
00000110: 01f1 5bbd ff0b 8cbc 7b28 ab3c a83a 083d
00000120: 74fb c23d 2e58 1b3e f945 be3d 3a3c 873d
00000130: 2b1b 723c e936 90bb 2e94 be3d fbeb 0d3d
00000140: e12f aa3d 4bb9 cc3d 8739 153d 9f92 143d
00000150: 9c72 8abd da84 83bd fc10 c03c eda2 e6bd
00000160: b2c0 ba3d 7626 d13c e94e 023c b60b 8abc
00000170: 1a6c 2d3d b351 68bd 396c fc3d ceaa 0cbd
00000180: f8ed 053e 0b41 85bd fd47 363c 2ae7 18bd
00000190: 5a54 d23d 3ab8 cabd 512b 1b3d fb2c f1bc
000001a0: 5b1d 18bd 322b 0dbd c477 013e eb46 293e
000001b0: 3d38 a8bd ecec c63d 8078 a83d ee7f ea3d
000001c0: 0986 fd3d b7af e7b9 d2a2 003c 1767 9bbd
000001d0: 2a5e 123e fb36 8f3d c263 47bd 3775 083e
-0.08353395 0.12901607 0.11191365 0.031194493 -0.14772469 0.022021819 -0.03707595 -0.06787161
0.08881358 -0.03290176 0.13304381 0.011442201 0.11800035 0.09681705 0.04396301 -0.09721308
-0.00077675376 -0.049394663 -0.0136124045 0.083043374 0.086874984 0.14641143 0.047627915 -0.015046127
-0.07543069 0.05003007 -0.064967155 0.095447816 0.10465718 0.08978963 -0.07894738 -0.011960978
0.0033223424 0.0797181 0.011097926 0.054064244 0.037832115 0.12686929 -0.05383297 -0.050600246
0.08148463 0.10759342 -0.0422303 -0.013934424 0.11496027 -0.0818152 -0.012344455 -0.051223017
0.067274556 0.07555344 0.11803897 0.044249255 0.116851 0.10066771 0.056290437 0.08886208
-0.045413405 0.092096314 0.09093565 -0.067828335 0.05018627 -0.06685337 0.07366438 -0.12131574
0.031089462 -0.0663991 0.038893458 -0.07680881 -0.053696636 -0.017095564 0.020893326 0.033259064
0.09520617 0.15170357 0.0929069 0.06603284 0.014776985 -0.004401077 0.09305607 0.034648877
0.083099134 0.09996279 0.036431815 0.03627264 -0.06760141 -0.06421824 0.023445599 -0.112615444
0.09118785 0.025531035 0.007953384 -0.016851287 0.04233942 -0.05671854 0.12325329 -0.03434258
0.13079059 -0.065065466 0.011125562 -0.03732983 0.10269995 -0.0989842 0.037883107 -0.029440394
-0.03713737 -0.034465022 0.12643343 0.1653096 -0.082138516 0.09713158 0.082261086 0.11450182
0.12379081 -0.0004419067 0.007851319 -0.07588022 0.14293733 0.069929086 -0.04867912 0.13325964

fc2.weight f4 [120, 120]
00000000: 481f 42be 0cca 923d 9f00 04be 52a7 b53d
00000010: 8df1 b3bd a93f 9abd 3127 c5b9 e3d2 9ebc
00000020: 3bcc 00bf 1441 753d 6c14 71bd a246 c0bc
00000030: 0bdd 39bd 0901 ddbe 33c7 c3bd d405 9ebd
00000040: 16b9 34bd 04af 02bf 5445 f5bc 39b5 573d
00000050: e7a1 be3c 18d2 e9be 40e3 38be 5e58 89bb
00000060: 9e6e b33d 815a 153b 5373 5c3d 0de4 f83d
00000070: 6976 f73d 57e4 1dbd b28a 2c3c 4b82 243c
00000080: 6859 2abd 292f 103e 4284 973c ae02 1abc
00000090: e5fd f63c 22dd eabd 8138 ed3c 0084 3dbc
000000a0: 7d44 653d 0f63 173e 4151 cfbc fc02 a53c
000000b0: 48bc 4b3c 99ea 5cbd cd83 3abd b002 0a3d
000000c0: b277 82bd 922e 06bd b332 963d ef78 293d
000000d0: 53bc 2ebe fcd5 b93b 770b ff3c 419e 1e3e
000000e0: 063a 453c a8ca ab3d 8b05 d93d 9b7d 5cbc
000000f0: 9f83 f23d 8f92 9dbd de2e 693d 639e dbbc
00000100: 4755 cbbd 25fe 7bbe 468b e1bd 9601 21bc
00000110: 9df9 10bd c297 09bd 9112 60bc 4d6c 303d
00000120: 7893 c2be af70 3b3d d7a1 fa3a 0d43 ebbd
00000130: c69d c73c f9c6 2bbd 558b d1bc 9f0b fe3c
00000140: 1a76 a0be fac2 cbbc 7493 c53b 4151 37bd
00000150: 0afb 61bd b0af bf3b 0ce2 613c d1fc bcbe
00000160: d2f9 adbc 799a 4cbd a3ad 473c 1e8d 983d
00000170: 0ea7 1abf d9ea a43d 9121 98bc 014a dfbe
00000180: d837 d0bd 50d7 ae3c 0aef e7be ba14 adbd
00000190: 045b e9bd ed2a 043c 6d9d 9ebd 3fc1 d6bd
000001a0: 4f41 d33c b6fe d03d 824f 12bd adc7 c83c
000001b0: b763 c0bc 2f12 0c3e 7411 773d c914 d8bd
000001c0: c1e8 a53d d3d4 ca3c bed8 51bc 7a9a efbe
000001d0: bf6a a7be 0506 fe3c b9e3 89bc e6fb 84be
000001e0: a11e 3ebc 6dc3 ff3d 4df2 fdbe 376e 5a3d
000001f0: 4179 133e 0082 99bc e0cc 333d 5748 5c3d
00000200: 277f ecbd f9ae f3bc cb38 173e a5a8 5f3d
00000210: f0ea 863c 8b3b 4fbc 1d70 e23d 0f19 b03b
00000220: 291f 6e3d 9994 983c 4cf6 a03b 11bd d53d
00000230: 5900 0abc 7ac3 9cbd c7d3 1abf ae94 e4bd
00000240: 7cc5 0b3d a1db f7be 07a7 e53b 10fd 73bd
00000250: 07f0 95bd 0320 76bc 9dc6 0ebe d3eb 093d
00000260: 5d68 ef3c faea 8a3d 238d c1be 4409 ccbc
00000270: aaa3 423e 91fe c6ba f348 233d 2509 0dbf
00000280: 9fcf 0a3e f02d 1f3d b657 abbc 3ff3 7e3d
00000290: 3af1 5aba 34be 29bc 98e1 7c3d 6431 db3d
000002a0: 24bb b7bd b293 bfbe 04d5 c53c 4f69 8dbd
000002b0: bbec a63c fd44 223e a61e 1b3e 58b3 6d3d
000002c0: 2b93 88bc e1fb 96bd 4b4d b7bd 61e4 763d
000002d0: ef00 033e b5a8 6fbd 81ba d23d 2e3d 55bd
000002e0: 87a1 ecbe cfc6 8e3d 9416 683d 8afb a23c
000002f0: 1e1c 10bd f6c8 95bd b1be 2a3b 72c7 483d
00000300: 7665 823e a892 9f3d 7a54 c1bc aad9 04bd
00000310: d6e1 9c3d d77c 49bd 5f96 e8bd d939 23be
00000320: 112f 383d 12d9 383d 02d8 87be a256 cfbe
00000330: fdff 933c 893c c0bc c2ca e5bc d120 b23b
00000340: d6db e43a 17ff 0d3c 6408 33bf 1d2c d53c
00000350: 700b 273c 8e9b 043e 0ad9 30bd 55b5 a93d
00000360: 2882 243e bfb9 803d ef18 ba3c b43f 433d
00000370: 8004 8bbd 4222 beb9 7091 26bf 8080 9cbd
00000380: af6a a2bd 2a6b 8a3d 39b2 03bf 5e3e 92bc
00000390: 6509 203d 9134 463e b8e7 afbd 8016 64bc
000003a0: a057 ca3d 8443 8dbc 71f0 c8be 9da0 b9bc
000003b0: 9713 1a3c 141b 6f3d 3dc0 37bd 0f9d b4bd
000003c0: b25b 8dbe b043 28bd 900b aa3c c14e 0bbe
000003d0: 7d73 463d 999f 0bbd 261e a43d cb92 aabd
000003e0: aef8 673d fe47 cdbd 8e2d 0d3e 041d 84bd
000003f0: f9b2 17bd 1469 18bd 3092 2d3e 8a93 cf3c
-0.18957245 0.07167444 -0.12890862 0.088698044 -0.087863065 -0.075316735 -0.00037603968 -0.019387668
-0.5031163 0.059876516 -0.058857366 -0.02347118 -0.04537682 -0.43164852 -0.095594786 -0.077159554
-0.044121824 -0.510483 -0.029940285 0.05266306 0.02327056 -0.456681 -0.18055439 -0.0041914424
0.08761333 0.002278954 0.05382092 0.12152872 0.12083132 -0.03854784 0.010531114 0.01004083
-0.04158917 0.1408049 0.018495683 -0.009400053 0.030150363 -0.11467959 0.028957607 -0.011567116
0.05597352 0.14783882 -0.0253073 0.020143025 0.0124350265 -0.053934667 -0.04553585 0.03369397
-0.06370486 -0.032759257 0.07333889 0.041375097 -0.17064027 0.005671261 0.031133397 0.15490057
0.01203776 0.08388263 0.1059676 -0.013457681 0.11841511 -0.076939695 0.05692946 -0.026808923
-0.09928375 -0.24608667 -0.110128924 -0.009827038 -0.0353943 -0.033591993 -0.013676302 0.043072034
-0.38003135 0.04576176 0.0019121718 -0.11487398 0.024367224 -0.041937802 -0.025579134 0.0310114
-0.31340104 -0.024873246 0.0060295407 -0.044755224 -0.05517105 0.005849801 0.013786804 -0.36911634
-0.021237288 -0.049952004 0.012187394 0.07448791 -0.60411155 0.08052606 -0.018570693 -0.43611148
-0.10166901 0.021342903 -0.4529956 -0.08451219 -0.11394313 0.008066875 -0.0774487 -0.104860775
0.025787978 0.10204832 -0.035720356 0.024509275 -0.023485048 0.13678811 0.06031938 -0.105508395
0.08101035 0.024759686 -0.012808023 -0.46797544 -0.32698628 0.03100873 -0.01683222 -0.25973433
-0.011603982 0.124884464 -0.49598923 0.053327765 0.14401723 -0.018738747 0.043896556 0.053779926
-0.1154769 -0.02974652 0.14767759 0.05460419 0.016469449 -0.0126484735 0.1105654 0.005374081
0.058135185 0.018625544 0.0049121734 0.10436452 -0.008422934 -0.07654472 -0.60479397 -0.11161171
0.034123883 -0.4840975 0.0070084366 -0.05956751 -0.07321172 -0.015022281 -0.13942952 0.033672165
0.029224569 0.067830995 -0.3780299 -0.024906762 0.19007745 -0.0015182068 0.03986449 -0.5509208
0.13555764 0.03886217 -0.020915847 0.062243696 -0.00083519856 -0.010360289 0.06173858 0.1070278
-0.08971241 -0.3741737 0.024149425 -0.06904852 0.020376554 0.1584663 0.1514841 0.058032364
-0.016671738 -0.07372261 -0.08950289 0.060276393 0.12793325 -0.0585105 0.10289479 -0.0520603
-0.46216986 0.069715135 0.056662157 0.019895334 -0.035183065 -0.07313721 0.0026053602 0.04901833
0.25468034 0.07791644 -0.023599852 -0.032434143 0.07660262 -0.049191322 -0.11356806 -0.15940036
0.04496676 0.04512889 -0.26531988 -0.40495783 0.0180664 -0.023466365 -0.028050784 0.005436041
0.0017460536 0.008666775 -0.6993468 0.026022011 0.010195598 0.12949964 -0.043175735 0.082865395
0.16065276 0.06285428 0.022716967 0.047668174 -0.06787968 -0.00036265148 -0.6506567 -0.07641697
-0.079305045 0.06758721 -0.5144382 -0.017852005 0.03907146 0.1935599 -0.08589119 -0.01392138
0.098799944 -0.017244108 -0.39245942 -0.022659594 0.009404085 0.058375433 -0.044861067 -0.08819019
-0.2760902 -0.041080177 0.020757467 -0.13604261 0.048449982 -0.03408775 0.08013563 -0.0832878
0.056633644 -0.10023497 0.13786909 -0.06450847 -0.037035916 -0.037209585 0.16950297 0.025338907

fc2.bias f4 [120]
00000000: c300 0e3e fb7a 863d 02ad f43d 77d7 2a3e
00000010: 20b8 c13d c040 243d 5ee9 0e3e 0f63 963e
00000020: 342c a13d 9324 0d3e c1fe 223d 8793 ca3d
00000030: 262c 813c a18b 173e 8853 423e 625f 1d3e
00000040: c51b 073e 1a05 3c3e 5158 533d f1b3 423d
00000050: 0749 213e 6afd d43d 9276 8e3d 0624 4b3e
00000060: ddf6 2b3d 443c 023e dbe0 e93d b8da 403e
00000070: a22c 6c3d 3f20 1b3d 7374 563d 9123 213e
00000080: 3959 e03d b70b 013e 517b 2e3d 1bca c83d
00000090: d188 153b 7bdd 253e cd23 aabd 84f7 173e
000000a0: 853a 603e 59b4 e03d 0235 683e 6227 6a3e
000000b0: 0a7f bf3d 3813 973d c4db e83d c8d4 c93e
000000c0: cb24 e43d 3a13 033e 7fdf 643d b3ea 483e
000000d0: 9cbb 173e 97ba 303e e678 153e 2d58 cabc
000000e0: ccc8 fe3d 35c5 9a3d cb67 023e 94f3 093d
000000f0: e12a fa3d 2a9a 143e aff7 c73d 8ee6 413e
00000100: 3225 e93b 6256 5c3d a5d9 1a3e 3e4a de3d
00000110: 287a b63d dd73 e43d 0470 2d3e f251 7c3d
00000120: 5adf adbd 6634 91be 7b13 883e 3247 6a3d
00000130: 4f2b 953d 521c 4b3e 4c95 4a3e 448c 3d3e
00000140: f9d2 dfbc b3f7 bb3d 9bfb b03d 6d63 c53e
00000150: 05e7 ad3e 4e8c d63d 343f 593e a337 ee3d
00000160: 63dc 7a3d ae7d 313e 6cb7 703e 31d3 103e
00000170: 0c67 073e 8eb8 abbd 8547 833d d38c 7dbe
00000180: dcb1 8b3e 5fa9 373d 58b7 a83d 8e0d 693e
00000190: d742 783d 6675 4a3e b1a3 7f3e f47c 933e
000001a0: ee9c 983d 7096 f53c c16b 293e 97ad b33e
000001b0: 5dae a83d 9c64 b63d 14ab 723d ebcc 1fbe
000001c0: 860a bb3e d142 173c e2ef 013c ea72 093e
000001d0: 76ee 633d 97a8 743d fbf6 1d3e aa69 2bbe
0.13867478 0.065664254 0.11947061 0.16683756 0.09458947 0.040100813 0.1395621 0.2937245
0.07869759 0.13783483 0.039793734 0.0989142 0.015768122 0.14799358 0.18977177 0.15368417
0.13194187 0.18361321 0.051597897 0.047534887 0.15750514 0.103998974 0.06956209 0.1983796
0.041983474 0.12718302 0.11419841 0.18833435 0.057659753 0.03787255 0.05235715 0.15736224
0.10954518 0.12602125 0.042598072 0.098041736 0.0022817145 0.1619777 -0.0830761 0.14840513
0.21897323 0.109718986 0.22676471 0.22866586 0.09350403 0.073767126 0.11370042 0.39420152
0.1113983 0.12800303 0.055877205 0.1962078 0.14817661 0.17258678 0.145969 -0.024700249
0.12440643 0.075571455 0.12734906 0.03367956 0.1221521 0.14511934 0.09764039 0.18935606
0.0071150297 0.05379332 0.15122087 0.10854004 0.08910018 0.11154912 0.16937262 0.061601587
-0.084898666 -0.2836029 0.26577362 0.057196803 0.07283651 0.19835022 0.19783515 0.18510538
-0.02732228 0.09178104 0.0864174 0.38552418 0.33965316 0.1047598 0.21215516 0.116317056
0.061245333 0.17333099 0.2350747 0.14143063 0.13222903 -0.083848104 0.06410126 -0.24760751
0.27284133 0.04483926 0.08238095 0.22759077 0.06061062 0.19771346 0.24964787 0.2880627
0.07451807 0.02997896 0.16545011 0.35093376 0.08236382 0.089059085 0.059245184 -0.15605514
0.36531466 0.009232239 0.007930728 0.13422742 0.055647336 0.059731092 0.15426247 -0.16739526

fc3.weight f4 [84, 120]
00000000: 9e4b ecbe f653 9c3d 698b 093d be79 62be
00000010: 487f 21be 126a f53c 68dd 463d 58f6 e83c
00000020: 3114 603d 4351 14bf 7d17 91be 3721 723c
00000030: 70a2 d2be c750 83be 0781 efbd 51ea eb3c
00000040: e304 cbbe c6a2 28bd f9e3 a2be 5117 18bf
00000050: cc24 49bf af49 fd3b 4fec 063c 50f7 efbd
00000060: 506e 1c3c eb76 943b d344 e3be 9250 fc3c
00000070: 7924 393d 54c0 7c3b aef6 66bd 119c 083d
00000080: bba7 e33d 6b24 a1be 9fd4 eb3d cfbe 1ebf
00000090: c93a 523d 955f 08bf 623d 883d f8c4 86ba
000000a0: a8fe e2bd b891 d53b 1e25 393c 3549 7bbd
000000b0: 41e1 043e 8b2e f6bc 6291 4fbe 54df a4bd
000000c0: 8120 a83c d071 b2be 4baa 59be faf0 ddbe
000000d0: a755 5b3d 607d eb3c faa2 84bd ddff f1bc
000000e0: 6a1b cfbd bad6 34be 5dff bfbe d94c 093d
000000f0: 83c8 8fbb faa6 a4bc 086c 28bf 5d7d 8d3d
00000100: 0678 543c a4b2 afbe 62bc d1be 3dfa ab3d
00000110: 3728 0fbe 8eb6 80be b5ac f7be 9248 093d
00000120: 669d 2f3d d6aa 863d 7f74 6ebb dbfb b83d
00000130: 4e14 ab3c fa10 a8bc 83dd 433c 7e1a 3b3e
00000140: 1182 9c3b b56e 6abe 808e b4be b1c0 9abd
00000150: b6a7 d03c d865 26be 4ab8 7f3d 4c4e ed3d
00000160: ccd9 583d 5f63 9cbe 3c38 c33d 086b 81bd
00000170: 44eb ff3d ce85 bd3c c6c8 68bb 2d8e dbbc
00000180: ba71 91bc eaeb 173d 93d9 b43d 2dc9 273d
00000190: a665 a3be f659 2b3d b399 e9bd 3317 95be
000001a0: 892d 383d 7507 b5be 26d6 843d 156c 9dbd
000001b0: 36a6 093c 159a a23d f403 88be bbec 9dbe
000001c0: 9f05 2e3c c5ca d5be 5cec d63b de42 d3bd
000001d0: ca6a 3f3d fb8f 2cbe 0924 cd3c 2776 db3c
000001e0: 2dc4 603a f9ce 9a3c f586 bebc e9ac 89bd
000001f0: fe04 ffbe c1b2 843d 3653 02bd 9dc0 133e
00000200: 638f ba3c 4a82 873d 651f 95bc d36a 8abe
00000210: 8a49 c5be b6a5 653d 4e62 40bd b60b 2fbc
00000220: a4ae 983d 400f 123e b91d 3cbe f7a8 f7bd
00000230: bb36 af3d 6aab 87bd 0415 69be bd4d 12be
00000240: cc1b 8a3b a4d5 9ebc 9e44 9dbd a76b 9bbc
00000250: d353 98bd 4a40 26bd 9c34 3cbe 0a73 b93c
00000260: 58f6 943d d040 abbd d6c3 d2be 9736 41bc
00000270: 198b c7bd f82a 333c 8e23 a73d acc0 ebbe
00000280: a366 ccbd 10b0 52bd 29f8 64bd abae f2bd
00000290: 8d0a 2dbd b374 31be 89eb b33d 8354 3d3b
000002a0: c8cc 103e dd25 2c3c fe69 e13c 4629 5fbc
000002b0: 6737 73be ffd3 1f3c f303 b53d 9d62 c13c
000002c0: a9b3 63bd ab2c 65be a5ba cdbd dfae ee3b
000002d0: 1b3a 18be ff6f 523c cd49 febd 08e3 c5bd
000002e0: ef72 843d 8dd5 81bc 96ae 4fbc b210 823d
000002f0: 0bab 10bf 2898 debe 24a6 9b3d 95d9 96be
00000300: 02c9 f6bd 6018 ddbc f9a6 25be df87 68bc
00000310: 21f5 dabe 0db2 ad3d d761 743c 76a8 1b3e
00000320: c6a8 0d3d f5cb 5cbd 24f4 b93c 982c 30bc
00000330: 4f8c 27bd 195a cabb 45fb f23d 17ec a93b
00000340: bcba afbe dc0d 85bc fae4 6fbd 9300 be3d
00000350: db88 953d 8041 243c 779b 83be 48df 9fbd
00000360: 85ba 653d cf84 c3bd 840c 30bd 7095 23be
00000370: 8720 88bd fa95 50bd cd90 82bd 940c af3c
00000380: e6e1 f23c 64a6 d1be 9bad 26be 156e 95bd
00000390: 7d4e 88be df67 ce3c 95d9 0ebe ee75 41bd
000003a0: ea95 493d 0994 29bd d050 ab3d 7d96 15bc
000003b0: 24eb ffbc bf46 3b3e 8065 1a3e 24cb b5bd
000003c0: 60b4 7ebe 842d 13bd 3287 9c3d deea 45bc
000003d0: 917f 643d b42f ef3c 4af7 b13c c991 be3d
000003e0: c648 d63b a2f3 b9be f719 c33a 565d 823a
000003f0: 81e4 023d a0d7 773d 728c af3d af5d 853d
-0.4615144 0.07633202 0.033580218 -0.22116753 -0.1577121 0.029957805 0.048550993 0.028437778
0.054706756 -0.57936496 -0.28338233 0.014778427 -0.41139555 -0.25647566 -0.11694532 0.028798254
-0.39652166 -0.041170858 -0.31814554 -0.5941058 -0.7857177 0.007729731 0.008235051 -0.11717093
0.009547785 0.0045307777 -0.44388446 0.030800138 0.0452008 0.0038566785 -0.056387596 0.03335196
0.111159764 -0.31473097 0.11515164 -0.620099 0.051325593 -0.53270847 0.06652333 -0.001028209
-0.11083728 0.006517615 0.011300353 -0.061349113 0.12976553 -0.03005149 -0.20270303 -0.08050409
0.020523312 -0.34852457 -0.21256368 -0.43347913 0.05354848 0.028746307 -0.06476398 -0.02954095
-0.10112651 -0.17660037 -0.37499514 0.033520553 -0.0043879165 -0.020099152 -0.6578984 0.06908677
0.012968069 -0.3431598 -0.40964037 0.083973385 -0.13980184 -0.25139278 -0.48373953 0.033516474
0.042874716 0.06575553 -0.0036385355 0.090324126 0.020883705 -0.020515908 0.011954668 0.18271825
0.0047762473 -0.22893794 -0.3526497 -0.07556284 0.025470596 -0.16249788 0.06243161 0.115871996
0.052942082 -0.30544564 0.0953221 -0.06319243 0.12496045 0.023135092 -0.003552006 -0.026801193
-0.017754424 0.03709022 0.088305615 0.04096334 -0.3191349 0.04183384 -0.11406269 -0.29119262
0.0449653 -0.35357252 0.06486158 -0.07686631 0.008401444 0.07939545 -0.26565516 -0.30844674
0.010621457 -0.41756263 0.006558938 -0.10315488 0.0467327 -0.16851799 0.025041597 0.026789738
0.00085741543 0.01889752 -0.023257712 -0.06722433 -0.49808496 0.06479407 -0.031817637 0.14428945
0.02277345 0.066166475 -0.018203447 -0.27034625 -0.38532668 0.056066237 -0.04696875 -0.010683944
0.07455185 0.1426363 -0.18370713 -0.12092774 0.08555361 -0.066244915 -0.22761923 -0.14287467
0.0042147394 -0.019388981 -0.07679103 -0.018972231 -0.07437863 -0.040588655 -0.18379444 0.022637863
0.07273549 -0.083619714 -0.41165036 -0.0117928 -0.09743328 0.0109355375 0.081610784 -0.46045434
-0.09980514 -0.051437438 -0.055900726 -0.118497215 -0.04224639 -0.17329673 0.08785159 0.0028889484
0.14140618 0.010507074 0.027516361 -0.01362068 -0.23751603 0.009755134 0.08838644 0.023606593
-0.05559126 -0.2238032 -0.10045365 0.00728403 -0.14865915 0.012844085 -0.1241642 -0.096624434
0.06467234 -0.0158489 -0.012675902 0.06350841 -0.5651099 -0.4347546 0.07600048 -0.29462877
-0.12050058 -0.026989162 -0.16176976 -0.01419255 -0.42765144 0.08481226 0.014915905 0.15200981
0.034584783 -0.053905446 0.022699423 -0.0107528195 -0.040905293 -0.0061752913 0.11864332 0.005185615
-0.34322155 -0.01624196 -0.05856798 0.09277453 0.07301494 0.010025382 -0.25704548 -0.078062594
0.056086082 -0.095468156 -0.042980686 -0.15974975 -0.06646829 -0.05092428 -0.06375275 0.021368302
0.029648732 -0.40947258 -0.16277163 -0.07296387 -0.26622382 0.025196014 -0.13950188 -0.047231607
0.049215235 -0.041400943 0.08365023 -0.0091301175 -0.031240053 0.18288706 0.15077782 -0.088766366
-0.24873495 -0.03593208 0.07642974 -0.0120799225 0.05578572 0.029197551 0.021724362 0.0930515
0.006539437 -0.3631869 0.0014885057 0.0009946029 0.0319562 0.06050837 0.0857171 0.06512009

fc3.bias f4 [84]
00000000: f1ee 123f a764 203f 08ea 02bf a9b8 183f
00000010: 1e18 483e d2ab 2abd 8a62 6c3e 6792 913e
00000020: 18ef 253f fb36 4abe e15d 053f 90d6 f03e
00000030: 4ac2 b33d 1fd8 023f d16d d53e 82f8 433f
00000040: 158f 973e 99c4 a63e ec1e 143e d1d0 093f
00000050: c559 403f 441d 583d c801 dd3e b352 f13e
00000060: 22da 5d3f 3044 d83e ce72 c83e 8183 353f
00000070: 7e32 413f 6da5 e33e 0622 473d 95e8 bc3e
00000080: 01b5 f13e 18e6 fa3e a10e 2a3f 5747 343f
00000090: 3f60 70bf ac9c 623f 4db0 273f 212b 3b3f
000000a0: 46f7 243f 9f72 bf3e c826 193f c4dc 263f
000000b0: 69f6 d6bf 3c48 833f 4dd5 81bd cd6e a03d
000000c0: 01bf d93e 8ff0 94be f41b 4c3e 5baf 133f
000000d0: cc14 1f3e b42e 85bd c057 7a3f 2c50 533f
000000e0: cfdb 2c3f 3263 a1bf cda2 8b3e ce3e 3e3f
000000f0: 58b0 3e3f 807e 363f 056a 243f e57a 313f
00000100: 0adf 603e 9a83 dc3e 898f 003f 1ebb 4b3f
00000110: 7c04 023f c684 ce3e 2ad9 903e 3d63 4b3f
00000120: c537 103f c741 1d3f 958a 513f 47ec 473f
00000130: 3464 093e 7bf6 5d3f 2b6c 673f ba25 3cbf
00000140: b483 353f 673a 1abf b39f 3b3f aa10 2a3f
0.57395846 0.62653583 -0.51138353 0.5965677 0.1954045 -0.041667767 0.23084465 0.2843201
0.64817953 -0.19747536 0.5209637 0.47038698 0.08777292 0.51111025 0.41685346 0.7655107
0.2960135 0.32571867 0.14464921 0.53834254 0.7513698 0.052762285 0.4316542 0.47133407
0.8666097 0.42239523 0.3915009 0.70903784 0.7546767 0.44462147 0.04861643 0.36896196
0.47208408 0.49003673 0.6642857 0.70421356 -0.9389686 0.8852031 0.6550339 0.73112684
0.6443981 0.37392136 0.598248 0.6518061 -1.6793948 1.0256419 -0.06339512 0.078336336
0.42528537 -0.29089782 0.19932538 0.57689446 0.15535277 -0.065030485 0.97790146 0.8254421
0.675229 -1.2608397 0.27272645 0.7431458 0.7448783 0.71286774 0.6422427 0.6932815
0.21960083 0.43069154 0.5021902 0.79582393 0.5078809 0.40335673 0.28290683 0.794483
0.563351 0.61428493 0.81852084 0.78094906 0.1341713 0.86704224 0.90399426 -0.73495066
0.7090409 -0.60245365 0.73290557 0.6643168
